notebooks/logs/lightning_logs/version_0/checkpoints/epoch=39-step=34400-v1.ckpt (torch, 312114 bytes, 12 tensors)

model1.1.weight f4 [32, 784]
-0.03276664 0.010707886 0.01116823 -0.0526322 -0.03680093 -0.0010917366 -0.05115742 -0.015348143
-0.033892263 -0.050107297 -0.026318843 0.012365443 -0.038532995 -0.04005504 0.0072118784 -0.04759772
0.012357278 -0.018257853 -0.0027819886 -0.016468441 0.017441634 -0.00943094 -0.026472008 -0.029656824
0.017608654 0.016931944 -0.02257573 -0.0049263937 0.012258206 -0.022248143 -0.00464494 -0.0068359007
0.0012161075 0.014684743 -0.033895973 -0.0011399664 -0.021939548 0.016694268 -0.03783057 0.020563247
-0.026566884 0.0016878841 -0.046565585 -0.030310947 -0.01267128 0.0013514251 -0.027249742 -0.010387872
-0.003865581 -0.0013124609 -0.02617762 0.014105044 -0.05293559 -0.023112236 -0.03668584 0.012582827
-0.0069607063 -0.029051924 -0.0054915734 -0.026934113 -0.04845086 -0.03798635 -0.009054391 -0.009118029
-0.045990843 -0.03491849 0.016505297 -0.034324095 -0.03576275 0.006431192 -0.0539657 -0.06552124
-0.09302285 -0.06923812 -0.064706706 -0.039834663 -0.024175195 -0.053295583 0.014651525 0.015886806
-0.007420581 -0.025078166 0.014336713 -0.026299467 0.016148182 -0.05285539 -0.031710364 -0.028985448
0.00017915515 -0.04193577 -0.04075062 -0.04989401 -0.08035038 -0.0917285 -0.02275514 0.021828849
-0.04078485 0.059391767 0.12673338 0.0706474 0.006954274 -0.076358855 -0.07446001 -0.07998292
-0.07820823 -0.10311488 -0.088105194 -0.025258875 -0.0021941382 -0.01822765 -0.00069927966 -0.00932461
-0.024829643 -0.006933627 -0.044774476 -0.017401597 -0.014961604 0.030043107 0.008250749 -0.033668242
-0.036105603 -0.023896607 -0.09128 0.03358612 0.03217608 0.052850116 0.07317783 0.07301179
0.0012615426 -0.03984022 -0.04067609 -0.020098018 -0.058498316 -0.083582394 -0.05590786 -0.14400074
-0.20696448 -0.13707225 0.0040499913 -0.037365764 -0.018401014 0.016192604 -0.010062775 0.0024645212
0.059895393 0.024200672 -0.011204638 -0.103986815 0.009052217 0.029998982 0.112256676 0.11129875
0.08375229 0.021898875 0.01940616 0.04023665 0.06583644 -0.020645829 0.038277242 -0.020788971
-0.033880293 -0.04520156 -0.20282826 -0.19128263 -0.17730084 -0.040430676 -0.015026463 -0.0076053035
0.016321022 -0.021518929 -0.02903031 0.062210098 0.14078216 0.1241781 0.050160915 0.034895208
0.0067307684 -0.0460923 0.054133393 0.02699792 0.0267847 0.026319379 0.051303726 0.008174176
0.029633688 0.036924127 0.1275321 0.05049982 -0.007542108 0.041069705 -0.12463308 -0.20261146
-0.11569024 -0.09393501 -0.022029458 -0.04281467 -0.031039877 -0.014103948 0.02723724 0.06644989
0.13853863 -0.046891775 0.12366655 0.034722593 0.019943161 -0.065012425 -0.00016452173 -0.01459783
0.003027208 -0.021959543 0.021088876 -0.02469412 0.08062172 0.09863585 0.06611208 0.025257554
0.0018332741 0.021024724 -0.09158133 -0.08633429 -0.13051239 -0.11121725 -0.08982125 -0.019561179
-0.014649824 -0.016247291 -0.056269906 -0.005780505 0.0425717 -0.04221784 -0.029531369 0.009629589
0.051405896 -0.054460764 -0.04868228 -0.0031658742 0.05038661 -0.064787306 0.11808678 0.13179785
0.1320133 0.06755547 0.040246777 0.09988048 0.040921416 0.035763267 -0.026072038 0.009111945
-0.03007193 -0.12198826 -0.081581585 -0.052405264 0.0031380493 0.030610131 -0.016459683 -0.022156104
00000000: 5036 06bd 2170 2f3c f4fa 363c dd94 57bd
00000010: 92bc 16bd 9a18 8fba 718a 51bd c776 7bbc
00000020: 9dd2 0abd 4f3d 4dbd 9d9a d7bc 6d98 4a3c
00000030: c6d4 1dbd c110 24bd 9f51 ec3b d4f5 42bd
00000040: 2e76 4a3c 7e91 95bc 0652 36bb d3e8 86bc
00000050: c2e1 8e3c 3b84 1abc d3db d8bc def2 f2bc
00000060: 0640 903c dcb4 8a3c bdf0 b8bc 966d a1bb
00000070: a4d6 483c bd41 b6bc 9534 98bb b1ff dfbb
00000080: cc65 9f3a 4798 703c 81d6 0abd ed6a 95ba
00000090: 91ba b3bc 6bc2 883c 3af4 1abd 4174 a83c
000000a0: cba2 d9bc fe3b dd3a 8ebb 3ebd aa4e f8bc
000000b0: 339b 4fbc 4d22 b13a da3a dfbc e531 2abc
000000c0: b055 7dbb e106 acba 7372 d6bc d818 673c
000000d0: fdd2 58bd df55 bdbc e443 16bd 3428 4e3c
000000e0: a316 e4bb 4dfe edbc a8f2 b3bb eea4 dcbc
000000f0: 6974 46bd 9397 1bbd de58 14bc c963 15bc
00000100: e560 3cbd b106 0fbd 1e36 873c 6c97 0cbd
00000110: f67b 12bd c0bc d23b 230b 5dbd 0030 86bd
00000120: c482 bebd b7cc 8dbd f384 84bd ac29 23bd
00000130: 0f0b c6bc 784c 5abd f30c 703c 0c25 823c
00000140: 5828 f3bb ba70 cdbc 88e4 6a3c fb71 d7bc
00000150: 3149 843c e57e 58bd bae2 01bd e472 edbc
00000160: 98db 3b39 d8c4 2bbd 1fea 26bd a95d 4cbd
00000170: bd8e a4bd 27dc bbbd fd68 babc 6ad2 b23c
00000180: 040e 27bd c844 733d 65c6 013e 96af 903d
00000190: aee0 e33b 0862 9cbd 7d7e 98bd 16ce a3bd
000001a0: a32b a0bd e52d d3bd 7f70 b4bd b3eb cebc
000001b0: 88cb 0fbb 2752 95bc dd4f 37ba 40c6 18bc
000001c0: 8967 cbbc 7b33 e3bb 7165 37bd cb8d 8ebc
000001d0: 8421 75bc f61c f63c 262e 073c b6e7 09bd
000001e0: 78e3 13bd d1c2 c3bc 02f1 babd 9991 093d
000001f0: 11cb 033d 5d79 583d 42de 953d 3587 953d
00000200: 585a a53a 802f 23bd f99b 26bd 99a4 a4bc
00000210: ee9b 6fbd 3f2d abbd a4ff 64bd ee74 13be
00000220: 7fee 53be ab5c 0cbe cab5 843b d80c 19bd
00000230: b9bd 96bc 5aa6 843c 56de 24bc ce83 213b
00000240: df54 753d 7d40 c63c a893 37bc 0af7 d4bd
00000250: c04f 143c 6dc0 f53c d4e6 e53d 99f0 e33d
00000260: 5286 ab3d 4565 b33c abf9 9e3c 2fcf 243d
00000270: 41d5 863d 7121 a9bc 99c8 1c3d a24d aabc
00000280: 10c6 0abd 4525 39bd 36b2 4fbe 98df 43be
00000290: 5a8e 35be a39a 25bd 8e31 76bc e935 f9bb
000002a0: aab3 853c 7748 b0bc f9d0 edbc 04d0 7e3d
000002b0: 3329 103e 1651 fe3d 8875 4d3d 47ee 0e3d
000002c0: c78d dc3b 48cb 3cbd faba 5d3d be2a dd3c
000002d0: 966b db3c bd9b d73c db23 523d fbec 053c
000002e0: 59c2 f23c c13d 173d c697 023e e6d8 4e3d
000002f0: ca23 f7bb b538 283d a13f ffbd 6179 4fbe
00000300: 01ef ecbd 0061 c0bd 1f77 b4bc 6f5e 2fbd
00000310: 5747 febc 3f14 67bc a220 df3c e116 883d
00000320: 12dd 0d3e 9711 40bd e344 fd3d 4739 0e3d
00000330: d75f a33c 3c25 85bd 7783 2cb9 bd2b 6fbc
00000340: 1f64 463b 80e4 b3bc 94c2 ac3c 534b cabc
00000350: 001d a53d 9801 ca3d c565 873d eee8 ce3c
00000360: 794a f03a 0b3c ac3c fe8e bbbd 08d0 b0bd
00000370: 0aa5 05be dfc5 e3bd 34f4 b7bd c43e a0bc
00000380: d105 70bc 0a19 85bc 467b 66bd 646a bdbb
00000390: aa5f 2e3d 9dec 2cbd c5eb f1bc 6cc5 1d3c
000003a0: fd8e 523d 4012 5fbd 1267 47bd 8e7a 4fbb
000003b0: 3162 4e3d 35af 84bd 7bd7 f13d 04f6 063e
000003c0: 7f2e 073e 865a 8a3d ced9 243d 238e cc3d
000003d0: 379d 273d 817c 123d 0795 d5bc 444a 153c
000003e0: 6859 f6bc fbd4 f9bd 3f14 a7bd e7a6 56bd
000003f0: bba7 4d3b 19c2 fa3c 75d6 86bc b880 b5bc

model1.1.bias f4 [32]
0.031459507 -0.0068070143 0.021571457 0.025239576 0.04943879 -0.017468628 0.047422297 0.030812325
0.027526086 0.0065389597 -0.007681645 0.074743316 -0.024707917 -0.0013566546 0.04242137 -0.066477984
0.02571917 0.049023796 0.027269648 -0.010922956 0.01626608 0.03015824 0.008830667 -0.02598886
0.029757414 0.01174019 0.011268938 -0.035656016 0.0044589336 0.031148018 -0.03325124 -0.025397306
00000000: afdb 003d 600d dfbb a0b6 b03c 3ac3 ce3c
00000010: 5480 4a3d 5e1a 8fbc e23d 423d 216a fc3c
00000020: 637e e13c c544 d63b 4fb6 fbbb 0613 993d
00000030: 4268 cabc c6d1 b1ba 08c2 2d3d 9c25 88bd
00000040: 02b1 d23c 2dcd 483d 9964 df3c 33f6 32bc
00000050: 7140 853c 6a0e f73c 80ae 103c 97e6 d4bc
00000060: d2c5 f33c ed59 403c 5aa1 383c 0b0c 12bd
00000070: 3f1c 923b 212a ff3c 7432 08bd 030e d0bc

model2.0.weight f4 [10, 32]
0.19026189 0.10279105 -0.38843912 0.23056795 -0.010221544 0.23122962 -0.31737465 -0.37836534
0.014568917 -0.21951628 -0.097282894 0.17498817 -0.0095971385 -0.23678811 0.1836085 0.2462678
0.103029095 -0.024903644 -0.613711 -0.36906368 0.079630844 -0.19746867 0.096077845 -0.7281802
-0.04535735 -0.4939233 -0.38470903 0.023879267 0.23668239 0.2493566 -0.14553645 0.23507775
0.010230922 -0.17814751 0.25730017 0.11016039 -0.45529258 0.16455828 -0.026161749 -0.16720824
0.13685472 -0.14545047 0.34786147 -0.27806607 -0.2799839 0.13786472 -0.25231776 0.17490597
-0.3498415 -0.24388675 -0.6160793 0.18910508 0.17060775 0.035085265 0.08101267 0.09891067
0.18142246 0.036202837 0.19438967 0.07269256 -0.58865774 0.05372608 0.20396364 0.3733005
0.18715905 0.26096624 -0.6724663 0.23408335 -0.3817895 -0.55186546 -0.08766768 0.21405818
0.36592633 0.17069115 0.10740074 -0.19704753 0.2928569 0.22316565 -0.13802567 0.29392934
0.25067574 -0.07455332 -0.45569777 0.19981746 0.18009996 -0.21930504 0.07567763 0.3574368
0.017451592 0.2943952 -0.21532361 -0.5660043 0.3338912 -0.34329483 -0.12351483 0.23230216
0.08275096 -0.4029414 0.3291559 0.14449807 -0.020027384 0.035483688 0.12463248 0.4585641
0.42497897 0.2656472 0.2866959 -0.35268256 -0.030937955 -0.39481866 0.20364103 -0.18348667
0.06552576 0.055508927 0.34506324 0.17085424 0.015044483 -0.23938265 -0.035988417 -0.18480042
0.034911867 0.08383733 0.09737288 -0.13139331 0.20405598 -0.26837158 -0.45305377 0.0016522988
-0.5835598 0.111414894 -0.14365357 -0.78658605 0.26360843 0.27571133 -0.07843399 -0.09606502
-0.3085324 0.05184448 -0.6176107 -0.08436031 0.10324819 0.2012502 0.2103119 0.052135788
-0.9285508 0.11969724 -0.24981149 0.16864048 0.54921156 0.25838375 -0.2216948 -0.13520575
-0.32368323 -0.5835972 0.049039047 -0.22703053 -0.14037535 0.18898815 -0.007357633 -0.4476315
-0.07696237 0.23898207 0.3809234 0.27464354 0.093856744 -0.24753089 0.18494844 -0.19997875
-0.33780473 -0.23261373 0.064195156 -0.002427894 -0.002009381 -0.1338739 0.043479238 -0.90718323
-0.056909304 -0.03532954 0.32276857 -0.004007424 -0.28745532 -0.28744438 0.12773858 0.043855015
-0.4239651 -0.120063424 0.26562503 0.37982953 0.06858862 -0.05803107 0.51597506 -0.41031858
0.113014 -0.20232467 -0.33166176 0.2927824 0.21293555 0.24328187 -0.22067723 -0.13392203
-0.13571574 -0.3447803 -0.6138967 0.12579443 -0.41384348 0.04560681 -0.21586184 -0.459712
-0.56213874 0.15158685 -0.3944674 0.16691558 -0.33931363 0.22641198 0.25639296 -0.2881497
0.18135254 0.26980212 -0.09926292 0.045365844 0.24957722 -0.18952173 -0.3623919 -0.08076547
0.27910292 -0.084508404 -0.45991248 -0.38753885 0.14638066 0.17797108 0.22897547 0.16141407
0.47963572 0.04996731 0.19095047 -0.26797315 0.26196164 -0.34751603 0.15571183 0.16113015
-0.0046783313 -0.24787703 -0.39019427 0.29474 0.09323359 0.06223265 -0.49133596 0.07971002
0.009219104 0.39234313 -0.3166795 -0.06586425 0.025372466 0.32428613 -0.13505614 -0.09260626
00000000: 03d4 423e 1d84 d23d 7ee1 c6be 011a 6c3e
00000010: 4378 27bc 75c7 6c3e ee7e a2be 1ab9 c1be
00000020: 78b2 6e3c e0c8 60be 413c c7bd 1930 333e
00000030: 513d 1dbc 9578 72be de03 3c3e a02d 7c3e
00000040: eb00 d33d ba02 ccbc 2a1c 1dbf eaf5 bcbe
00000050: 7f15 a33d 3a35 4abe 76c4 c43d 056a 3abf
00000060: a1c8 39bd 84e3 fcbe 95f8 c4be 749e c33c
00000070: de5c 723e 5657 7f3e 8207 15be 39b8 703e
00000080: 999f 273c 4d6c 36be d9bc 833e c59b e13d
00000090: 1c1c e9be f781 283e 2a51 d6bc a338 2bbe
000000a0: a523 0c3e f8f0 14be e61a b23e ad5e 8ebe
000000b0: 0d5a 8fbe 692c 0d3e cb2f 81be 8d1a 333e
000000c0: 6d1e b3be 73bd 79be 5fb7 1dbf c3a4 413e
000000d0: ccb3 2e3e 91b5 0f3d f9e9 a53d ad91 ca3d
000000e0: cfc6 393e 6d49 143d 160e 473e d6df 943d
000000f0: 46b2 16bf e10f 5c3d d8db 503e 3e21 bf3e
00000100: 9fa6 3f3e 5e9d 853e c026 2cbf 8cb3 6f3e
00000110: ea79 c3be 0e47 0dbf 1d8b b3bd 1132 5b3e
00000120: b25a bb3e a9c9 2e3e ebf4 db3d d4c6 49be
00000130: 57f1 953e 8985 643e 9a56 0dbe e87d 963e
00000140: 9258 803e 69af 98bd 3851 e9be f39c 4c3e
00000150: 206c 383e 8091 60be e0fc 9a3d f501 b73e
00000160: a4f6 8e3c f8ba 963e cb7d 5cbe a8e5 10bf
00000170: caf3 aa3e 57c4 afbe 58f5 fcbd 9ee0 6d3e
00000180: 5679 a93d 564e cebe 1f87 a83e 4df7 133e
00000190: 7810 a4bc 5857 113d 503f ff3d eac8 ea3e
000001a0: d896 d93e e902 883e cec9 923e cf92 b4be
000001b0: 9871 fdbc ac25 cabe 4687 503e eee3 3bbe
000001c0: 5f32 863d 545d 633d 21ac b03e 6af4 2e3e
000001d0: 237d 763c ba20 75be 9768 13bd 523c 3dbe
000001e0: bfff 0e3d e8b2 ab3d 6f6b c73d f88b 06be
000001f0: 0df4 503e 0068 89be aaf6 e7be f391 d83a
00000200: 2d64 15bf 7e2d e43d ec19 13be b45d 49bf
00000210: aff7 863e 092a 8d3e 00a2 a0bd bdbd c4bd
00000220: f5f7 9dbe e15a 543d bc1b 1ebf 19c5 acbd
00000230: c973 d33d 8814 4e3e 015c 573e 568c 553d
00000240: 81b5 6dbf d423 f53d 95ce 7fbe 17b0 2c3e
00000250: 2199 0c3f e04a 843e f603 63be 6073 0abe
00000260: cfb9 a5be a066 15bf 2bdd 483d b17a 68be
00000270: 8ebe 0fbe 1c86 413e 4d18 f1bb f52f e5be
00000280: 729e 9dbd b7b7 743e 6408 c33e 149e 8c3e
00000290: f737 c03d bd78 7dbe 2063 3d3e 3bc7 4cbe
000002a0: bef4 acbe 4b32 6ebe c078 833d 4d1d 1fbb
000002b0: d2af 03bb 3d16 09be 4917 323d 293d 68bf
000002c0: bb19 69bd b5b5 10bd ec41 a53e b650 83bb
000002d0: 582d 93be e92b 93be e7cd 023e 51a1 333d
000002e0: f411 d9be d0e3 f5bd 0100 883e 0479 c23e
000002f0: 3178 8c3d fdb1 6dbd f116 043f 4715 d2be
00000300: e273 e73d 332e 4fbe 92cf a9be 93e7 953e
00000310: c70b 5a3e e21e 793e 36f9 61be db22 09be
00000320: 11f9 0abe 0b87 b0be 5628 1dbf 41d0 003e
00000330: 4be3 d3be 35ce 3a3d e30a 5dbe 5f5f ebbe
00000340: 53e8 0fbf 9539 1b3e a2f7 c9be ebeb 2a3e
00000350: 84ba adbe 8bd8 673e f045 833e 5c88 93be
00000360: 7bb4 393e 8123 8a3e 5c4a cbbd 89d1 393d
00000370: 2c91 7f3e fc11 42be 6e8b b9be 5e68 a5bd
00000380: 94e6 8e3e be12 adbd a679 ebbe 7e6b c6be
00000390: d0e4 153e 0d3e 363e 8c78 6a3e bb49 253e
000003a0: d092 f53e 86aa 4c3d 8588 433e c733 89be
000003b0: d61f 863e 9fed b1be ec72 1f3e 4dff 243e
000003c0: b04c 99bb 7ad3 7dbe 8bc7 c7be 29e8 963e
000003d0: 41f1 be3d aae7 7e3d 6390 fbbe 023f a33d
000003e0: ba0b 173c 33e1 c83e d123 a2be d6e3 86bd
000003f0: ebd9 cf3c d508 a63e 284c 0abe 5aa8 bdbd

model2.0.bias f4 [10]
-0.07409151 -0.055713717 -0.08913608 0.104590856 -0.03771114 0.19525544 -0.047883358 -0.12229249
0.0045506926 0.12518686
00000000: 4abd 97bd 1134 64bd fa8c b6bd bb33 d63d
00000010: ff76 1abd 0bf1 473e 5721 44bd 7c74 fabd
00000020: fa1d 953b fc30 003e

exp_avg f4 [32, 784]
-0.00030427647 -0.00030427647 -0.00030427647 -0.00030427647 -0.00030427647 -0.00030427647 -0.00030427647 -0.00030427647
-0.00030427647 -0.00030427647 -0.00030427647 -0.00030427647 -0.00030427647 -0.00030427647 -0.00030427647 -0.00030427647
-0.00030427647 -0.00030427647 -0.00030427647 -0.00030427647 -0.00030427647 -0.00030427647 -0.00030427647 -0.00030427647
-0.00030427647 -0.00030427647 -0.00030427647 -0.00030427647 -0.00030427647 -0.00030427647 -0.00030427647 -0.00030427647
-0.00030427647 -0.00030427647 -0.00030427647 -0.00030427647 -0.00030427647 -0.00030427647 -0.00030427647 -0.00030427647
-0.00030427647 -0.00030427647 -0.00030427647 -0.00030427647 -0.00030427647 -0.00030427647 -0.00030427647 -0.00030427647
-0.00030427647 -0.00030427647 -0.00030427647 -0.00030427647 -0.00030427647 -0.00030427647 -0.00030427647 -0.00030427647
-0.00030427647 -0.00030427647 -0.00030427647 -0.00030427647 -0.00030427647 -0.00030427647 -0.00030427647 -0.00030427647
-0.00030427644 -0.00030427458 -0.00030422802 -0.0002984776 -0.00029752505 -0.00030338962 -0.00030003727 -0.00030176944
-0.00030324885 -0.0003035986 -0.00030513253 -0.00030496428 -0.00030427647 -0.00030427647 -0.00030427647 -0.00030427647
-0.00030427647 -0.00030427647 -0.00030427647 -0.00030427647 -0.00030427647 -0.00030427647 -0.00030427647 -0.0003042326
-0.00030363796 -0.00030429527 -0.00030447423 -0.00030475575 -0.00030642826 -0.00028628734 -0.00023732311 -0.00024355065
-0.00027284404 -0.0003031005 -0.00038015007 -0.00046756453 -0.00051813095 -0.0005434108 -0.00057759724 -0.00048718986
-0.0003431032 -0.00034279234 -0.0003243757 -0.00030429367 -0.00030427644 -0.00030427647 -0.00030427647 -0.00030427647
-0.00030427647 -0.00030427647 -0.00030427647 -0.00030419973 -0.00030423867 -0.00034177708 -0.00030651878 -0.00030882398
-0.00026883004 -0.00019700007 -0.00017574045 -0.00030380968 -0.00049784087 -0.0006306772 -0.0008118094 -0.0010036321
-0.00090214657 -0.00081919506 -0.00069670944 -0.0006345656 -0.00030196246 -0.00037044176 -0.00037250028 -0.0003587843
-0.00034552912 -0.00030440642 -0.00030431198 -0.00030427647 -0.00030427647 -0.00030427647 -0.00030427647 -0.00030367397
-0.00031785882 -0.00031075615 -0.0003274254 -0.00034954338 -0.00030021512 -0.0005355127 -0.0008792285 -0.00016438792
0.0002517921 -0.00046121635 -0.0010973124 -0.001132949 -0.0010722886 -0.0011114524 -0.0009063272 -0.00076607295
-0.0006048843 -0.00080904324 -0.0006876415 -0.0006448041 -0.00039393175 -0.00030439676 -0.0003042913 -0.00030427647
-0.00030427647 -0.00030427647 -0.00030427647 -0.0003042768 -0.00030439784 -0.0003328869 -0.0003790365 -0.00032865658
-0.0003288673 -0.0001892765 0.00022520598 0.00019285994 0.00056992343 -0.0004569953 -0.0003085605 0.0004324628
0.00079819106 -0.00018892957 -0.00069783296 -0.00019273975 -0.00022321883 -0.0011768433 -0.00069436466 -0.0006728251
-0.0005272446 -0.00030427103 -0.00030410336 -0.00030427647 -0.00030427647 -0.00030427647 -0.0003043482 -0.00030435636
-0.00031035274 -0.0003339206 -0.00038736706 -0.00029392616 -8.094931e-05 0.0010552431 0.001750925 0.001179298
0.00076343585 0.0012706617 0.0018603937 0.0023373857 0.0016623397 0.00017151116 6.0060105e-05 0.00017368147
0.00025362728 -0.00054671965 -0.0008899424 -0.0003470793 -5.841483e-05 -0.00029851263 -0.00030410674 -0.0003042762
-0.00030427647 -0.00030721494 -0.0003089088 -0.00034048883 -0.0003320386 -0.00033955352 -0.00027719786 0.0008481193
0.0015882386 0.002554981 0.0018367614 0.00054942357 0.0014680865 0.0021079734 0.0018395871 0.0010467656
0.0012130445 0.0018343368 0.0014879798 0.0011285006 0.0005504912 -0.0005161084 -0.00020684017 0.0005239497
0.0005512052 -0.00029127952 -0.00030403523 -0.0003042761 -0.00030427647 -0.0003081976 -0.00031143983 -0.0003488006
00000000: 4c87 9fb9 4c87 9fb9 4c87 9fb9 4c87 9fb9
00000010: 4c87 9fb9 4c87 9fb9 4c87 9fb9 4c87 9fb9
00000020: 4c87 9fb9 4c87 9fb9 4c87 9fb9 4c87 9fb9
00000030: 4c87 9fb9 4c87 9fb9 4c87 9fb9 4c87 9fb9
00000040: 4c87 9fb9 4c87 9fb9 4c87 9fb9 4c87 9fb9
00000050: 4c87 9fb9 4c87 9fb9 4c87 9fb9 4c87 9fb9
00000060: 4c87 9fb9 4c87 9fb9 4c87 9fb9 4c87 9fb9
00000070: 4c87 9fb9 4c87 9fb9 4c87 9fb9 4c87 9fb9
00000080: 4c87 9fb9 4c87 9fb9 4c87 9fb9 4c87 9fb9
00000090: 4c87 9fb9 4c87 9fb9 4c87 9fb9 4c87 9fb9
000000a0: 4c87 9fb9 4c87 9fb9 4c87 9fb9 4c87 9fb9
000000b0: 4c87 9fb9 4c87 9fb9 4c87 9fb9 4c87 9fb9
000000c0: 4c87 9fb9 4c87 9fb9 4c87 9fb9 4c87 9fb9
000000d0: 4c87 9fb9 4c87 9fb9 4c87 9fb9 4c87 9fb9
000000e0: 4c87 9fb9 4c87 9fb9 4c87 9fb9 4c87 9fb9
000000f0: 4c87 9fb9 4c87 9fb9 4c87 9fb9 4c87 9fb9
00000100: 4b87 9fb9 0b87 9fb9 cb80 9fb9 fc7c 9cb9
00000110: 23fd 9bb9 4410 9fb9 524e 9db9 cf36 9eb9
00000120: 5ffd 9eb9 502c 9fb9 32fa 9fb9 9de3 9fb9
00000130: 4c87 9fb9 4c87 9fb9 4c87 9fb9 4c87 9fb9
00000140: 4c87 9fb9 4c87 9fb9 4c87 9fb9 4c87 9fb9
00000150: 4c87 9fb9 4c87 9fb9 4c87 9fb9 6981 9fb9
00000160: 9931 9fb9 d289 9fb9 d7a1 9fb9 a0c7 9fb9
00000170: 1ba8 a0b9 d618 96b9 f0d9 78b9 a161 7fb9
00000180: 820c 8fb9 76e9 9eb9 e14e c7b9 7323 f5b9
00000190: 2ed3 07ba ae73 0eba e569 17ba 846d ffb9
000001a0: 88e2 b3b9 cfb8 b3b9 f810 aab9 9b89 9fb9
000001b0: 4b87 9fb9 4c87 9fb9 4c87 9fb9 4c87 9fb9
000001c0: 4c87 9fb9 4c87 9fb9 4c87 9fb9 ff7c 9fb9
000001d0: 3982 9fb9 8b30 b3b9 41b4 a0b9 a7e9 a1b9
000001e0: c2f1 8cb9 ce91 4eb9 f846 38b9 a548 9fb9
000001f0: 8981 02ba 0854 25ba 9bcf 54ba 4e8c 83ba
00000200: 087e 6cba 40bf 56ba 61a3 36ba fa58 26ba
00000210: b750 9eb9 da37 c2b9 244c c3b9 371b bcb9
00000220: 2228 b5b9 bd98 9fb9 108c 9fb9 4c87 9fb9
00000230: 4c87 9fb9 4c87 9fb9 4c87 9fb9 6e36 9fb9
00000240: 4aa6 a6b9 fcec a2b9 4baa abb9 eb42 b7b9
00000250: 3166 9db9 a661 0cba 077c 66ba 8c5f 2cb9
00000260: f702 8439 69cf f1b9 b2d3 8fba 767f 94ba
00000270: 098c 8cba 27ae 91ba 9796 6dba 49d2 48ba
00000280: 1991 1eba f915 54ba d742 34ba 1208 29ba
00000290: a088 ceb9 7197 9fb9 4989 9fb9 4c87 9fb9
000002a0: 4c87 9fb9 4c87 9fb9 4c87 9fb9 5787 9fb9
000002b0: 9697 9fb9 5387 aeb9 6bb9 c6b9 8a4f acb9
000002c0: d26b acb9 8678 46b9 4525 6c39 723a 4a39
000002d0: ea66 153a df98 efb9 4ac6 a1b9 2dbc e239
000002e0: b23d 513a 651b 46b9 c7ee 36ba 2f1a 4ab9
000002f0: d90f 6ab9 4f40 9aba 0606 36ba 8760 30ba
00000300: c936 0aba 9186 9fb9 1070 9fb9 4c87 9fb9
00000310: 4c87 9fb9 4c87 9fb9 ed90 9fb9 0592 9fb9
00000320: d7b6 a2b9 1012 afb9 8717 cbb9 1a1a 9ab9
00000330: 54c3 a9b8 1550 8a3a 4b7f e53a ad92 9a3a
00000340: 5021 483a 558c a63a 74d8 f33a d32e 193b
00000350: dde2 d93a add7 3339 0ce9 7b38 441e 3639
00000360: 47f9 8439 bc51 0fba 064b 69ba 32f8 b5b9
00000370: 7202 75b8 b081 9cb9 8470 9fb9 4387 9fb9
00000380: 4c87 9fb9 b111 a1b9 0af5 a1b9 a383 b2b9
00000390: 7715 aeb9 1a06 b2b9 de54 91b9 5354 5e3a
000003a0: 722c d03a 7871 273b 7cbf f03a 3107 103a
000003b0: cf6c c03a ed25 0a3b 4d1e f13a a033 893a
000003c0: 05ff 9e3a 216e f03a 5108 c33a 32ea 933a
000003d0: d74e 103a 734b 07ba 3ce3 58b9 ab59 093a
000003e0: c17e 103a e0b6 98b9 eb66 9fb9 3f87 9fb9
000003f0: 4c87 9fb9 9595 a1b9 bf48 a3b9 39df b6b9

exp_avg_sq f4 [32, 784]
2.1099681e-06 2.1099681e-06 2.1099681e-06 2.1099681e-06 2.1099681e-06 2.1099681e-06 2.1099681e-06 2.1099681e-06
2.1099681e-06 2.1099681e-06 2.1099681e-06 2.1099681e-06 2.1099681e-06 2.1099681e-06 2.1099681e-06 2.1099681e-06
2.1099681e-06 2.1099681e-06 2.1099681e-06 2.1099681e-06 2.1099681e-06 2.1099681e-06 2.1099681e-06 2.1099681e-06
2.1099681e-06 2.1099681e-06 2.1099681e-06 2.1099681e-06 2.1099681e-06 2.1099681e-06 2.1099681e-06 2.1099681e-06
2.1099681e-06 2.1099681e-06 2.1099681e-06 2.1099681e-06 2.1099681e-06 2.1099681e-06 2.1099684e-06 2.108607e-06
2.1132926e-06 2.108383e-06 2.1099681e-06 2.1099681e-06 2.1099681e-06 2.1099681e-06 2.1099681e-06 2.1099681e-06
2.1099681e-06 2.1099681e-06 2.1099681e-06 2.1099681e-06 2.1099681e-06 2.1099681e-06 2.1099681e-06 2.1099681e-06
2.1099681e-06 2.1099681e-06 2.1099681e-06 2.1101796e-06 2.1100252e-06 2.1099245e-06 2.1095286e-06 2.1091407e-06
2.110058e-06 2.1135154e-06 2.111892e-06 2.1116741e-06 2.1147837e-06 2.112189e-06 2.1113067e-06 2.1150158e-06
2.1134474e-06 2.137455e-06 2.1082005e-06 2.1096703e-06 2.1096098e-06 2.109264e-06 2.1095934e-06 2.1099681e-06
2.1099681e-06 2.1099681e-06 2.1099681e-06 2.1099681e-06 2.1099681e-06 2.1099681e-06 2.1099681e-06 2.1111678e-06
2.1127726e-06 2.1101537e-06 2.1078793e-06 2.1222454e-06 2.1115636e-06 2.4619264e-06 2.4787028e-06 2.977176e-06
2.6413425e-06 2.5616173e-06 3.2788796e-06 3.3119268e-06 3.1102302e-06 2.4753733e-06 2.3037765e-06 2.2413678e-06
2.149089e-06 2.1269054e-06 2.1118599e-06 2.1076992e-06 2.1091862e-06 2.1101087e-06 2.1099681e-06 2.1099681e-06
2.1099681e-06 2.1099681e-06 2.1094634e-06 2.1099474e-06 2.108353e-06 2.1192743e-06 2.1325784e-06 2.513301e-06
3.20061e-06 3.5123514e-06 3.6962679e-06 4.3943305e-06 5.5352434e-06 9.661962e-06 1.1481187e-05 1.1316335e-05
1.0601559e-05 9.635519e-06 6.9395287e-06 6.5372797e-06 5.149769e-06 3.2763185e-06 2.4943722e-06 2.300302e-06
2.9243506e-06 2.4573105e-06 2.1134806e-06 2.1100805e-06 2.1099681e-06 2.1099681e-06 2.1096948e-06 2.112045e-06
2.106338e-06 2.1382978e-06 2.369586e-06 4.0539207e-06 3.711493e-06 4.0889963e-06 7.488764e-06 1.1211569e-05
1.6296324e-05 2.3637658e-05 2.8645332e-05 2.9958548e-05 3.0158302e-05 2.702098e-05 2.184317e-05 1.3412914e-05
9.466236e-06 6.9920234e-06 3.9538554e-06 3.1634443e-06 2.6716277e-06 2.1469589e-06 2.106453e-06 2.1099684e-06
2.1099681e-06 2.1099681e-06 2.1119215e-06 2.1765425e-06 2.1829806e-06 2.3531095e-06 3.7011696e-06 5.501846e-06
6.2649706e-06 9.802482e-06 1.7019614e-05 2.2734714e-05 2.8108017e-05 3.1816486e-05 3.6813482e-05 4.5023346e-05
4.48483e-05 4.045707e-05 3.4566554e-05 2.0787375e-05 1.3847496e-05 1.0456495e-05 5.903948e-06 4.0880723e-06
2.6364842e-06 2.264121e-06 2.1097476e-06 2.1096532e-06 2.1099684e-06 2.1100468e-06 2.1201652e-06 2.220289e-06
2.375901e-06 3.565958e-06 5.3070357e-06 8.596849e-06 1.0434092e-05 1.6889404e-05 2.155789e-05 2.8320352e-05
3.4894474e-05 3.92603e-05 4.4533615e-05 4.7756723e-05 4.6998142e-05 4.5402274e-05 4.257033e-05 3.156118e-05
2.2214594e-05 1.6430999e-05 8.240014e-06 4.2801516e-06 2.6228315e-06 2.101755e-06 2.1225048e-06 2.1100952e-06
2.1203837e-06 2.1062745e-06 2.2350175e-06 2.512058e-06 2.7064266e-06 4.612836e-06 7.2416747e-06 1.1057037e-05
1.6073276e-05 2.1660915e-05 2.5630254e-05 3.2750482e-05 3.951859e-05 4.4576213e-05 4.531764e-05 4.4745404e-05
4.698225e-05 4.735465e-05 4.4202443e-05 3.776304e-05 2.7466758e-05 1.7831806e-05 9.594174e-06 5.2395476e-06
2.7941026e-06 2.1974213e-06 2.120349e-06 2.113765e-06 2.1094e-06 2.113031e-06 2.2498873e-06 2.5018765e-06
00000000: fa98 0d36 fa98 0d36 fa98 0d36 fa98 0d36
00000010: fa98 0d36 fa98 0d36 fa98 0d36 fa98 0d36
00000020: fa98 0d36 fa98 0d36 fa98 0d36 fa98 0d36
00000030: fa98 0d36 fa98 0d36 fa98 0d36 fa98 0d36
00000040: fa98 0d36 fa98 0d36 fa98 0d36 fa98 0d36
00000050: fa98 0d36 fa98 0d36 fa98 0d36 fa98 0d36
00000060: fa98 0d36 fa98 0d36 fa98 0d36 fa98 0d36
00000070: fa98 0d36 fa98 0d36 fa98 0d36 fa98 0d36
00000080: fa98 0d36 fa98 0d36 fa98 0d36 fa98 0d36
00000090: fa98 0d36 fa98 0d36 fb98 0d36 9881 0d36
000000a0: 17d2 0d36 be7d 0d36 fa98 0d36 fa98 0d36
000000b0: fa98 0d36 fa98 0d36 fa98 0d36 fa98 0d36
000000c0: fa98 0d36 fa98 0d36 fa98 0d36 fa98 0d36
000000d0: fa98 0d36 fa98 0d36 fa98 0d36 fa98 0d36
000000e0: fa98 0d36 fa98 0d36 fa98 0d36 9c9c 0d36
000000f0: f599 0d36 3a98 0d36 6d91 0d36 c38a 0d36
00000100: 859a 0d36 ebd5 0d36 07ba 0d36 49b6 0d36
00000110: b5eb 0d36 21bf 0d36 f9af 0d36 b2ef 0d36
00000120: c0d4 0d36 3371 0f36 9c7a 0d36 dc93 0d36
00000130: d292 0d36 e18c 0d36 8a92 0d36 fa98 0d36
00000140: fa98 0d36 fa98 0d36 fa98 0d36 fa98 0d36
00000150: fa98 0d36 fa98 0d36 fa98 0d36 96ad 0d36
00000160: 28c9 0d36 2a9c 0d36 1775 0d36 e66b 0e36
00000170: 63b4 0d36 9337 2536 ca57 2636 7fcb 4736
00000180: eb41 3136 40e8 2b36 b90a 5c36 7842 5e36
00000190: 59b9 5036 971e 2636 949a 1a36 686a 1636
000001a0: 1139 1036 f5bb 0e36 7ab9 0d36 ff71 0d36
000001b0: 8b8b 0d36 649b 0d36 fa98 0d36 fa98 0d36
000001c0: fa98 0d36 fa98 0d36 4e90 0d36 9f98 0d36
000001d0: 3b7d 0d36 db38 0e36 6b1d 0f36 2faa 2836
000001e0: 10ca 5636 bdb5 6b36 660d 7836 0373 9336
000001f0: 61bb b936 d019 2237 539f 4037 4adb 3d37
00000200: 59dd 3137 3da8 2137 19da e836 ce5a db36
00000210: 2ecc ac36 b9de 5b36 fd64 2736 e35e 1a36
00000220: f63f 4436 46e8 2436 52d5 0d36 e89a 0d36
00000230: fa98 0d36 fa98 0d36 4894 0d36 a8bc 0d36
00000240: 9c5a 0d36 ad7f 0f36 2d05 1f36 ea06 8836
00000250: f712 7936 3634 8936 fe47 fb36 5219 3c37
00000260: 17b4 8837 7c49 c637 624b f037 7e4f fb37
00000270: 76fc fc37 1dab e237 da3b b737 0708 6137
00000280: 2dd1 1e37 069d ea36 5cab 8436 8f4b 5436
00000290: 374a 3336 7914 1036 965c 0d36 fb98 0d36
000002a0: fa98 0d36 fa98 0d36 89ba 0d36 b710 1236
000002b0: 527f 1236 1dea 1d36 9c61 7836 7f9c b836
000002c0: b037 d236 5775 2437 58c5 8e37 6db6 be37
000002d0: 82c9 eb37 b172 0538 2d68 1a38 73d7 3c38
000002e0: 7f1b 3c38 73b0 2938 8efb 1038 8c60 ae37
000002f0: 8b52 6837 4e6e 2f37 871a c636 462c 8936
00000300: 74ee 3036 4df1 1736 3095 0d36 9193 0d36
00000310: fb98 0d36 549a 0d36 2948 0e36 4600 1536
00000320: ab71 1f36 b14e 6f36 1713 b236 2f3b 1037
00000330: 150e 2f37 b8ad 8d37 37d7 b437 7e91 ed37
00000340: a85b 1238 6dab 2438 9bc9 3a38 644e 4838
00000350: df1f 4538 526e 3e38 8b8d 3238 8f60 0438
00000360: 7a59 ba37 4dd5 8937 973e 0a37 399e 8f36
00000370: e703 3036 e00b 0d36 5b70 0e36 299b 0d36
00000380: ea4b 0e36 8559 0d36 4ffd 1536 d494 2836
00000390: 0ea0 3536 f6c7 9a36 83fd f236 9d81 3937
000003a0: 19d5 8637 76b4 b537 8d00 d737 905d 0938
000003b0: c3c0 2538 58f7 3a38 7213 3e38 03ad 3b38
000003c0: cf0e 4538 ab9e 4638 0366 3938 c163 1e38
000003d0: 6a68 e637 8395 9537 aaf6 2037 5fcf af36
000003e0: 5182 3b36 6977 1336 524b 0e36 35da 0d36
000003f0: 378f 0d36 99cd 0d36 c5fc 1636 e9e5 2736

exp_avg f4 [32]
0.0007172729 -0.0015628935 0.00037202548 0.0002669698 -0.00085841614 -0.0011432414 -0.00012731717 -3.001413e-05
0.0022519077 0.0015064928 0.001882565 -0.0012834666 0.00015542143 -0.00092429866 -0.00014555806 0.00041002323
0.001034532 -0.00044211713 0.0013879666 0.00044529466 -0.00051229814 -0.0014259263 0.00038478998 -0.001696758
0.0003078762 0.001376306 0.00036104044 -0.0006139781 0.0007447724 -0.0009595565 0.00022479991 0.0012238161
00000000: 5f07 3c3a 01da ccba 6a0c c339 14f8 8b39
00000010: 5507 61ba d1d8 95ba 7180 05b9 dac6 fbb7
00000020: be94 133b 8375 c53a 66c0 f63a fe39 a8ba
00000030: 9ff8 2239 a24c 72ba f2a0 18b9 63f8 d639
00000040: 2299 873a f5cb e7b9 6eec b53a 7076 e939
00000050: bf4b 06ba 26e6 baba a3bd c939 c065 deba
00000060: 726a a139 2b65 b43a 074a bd39 5ff3 20ba
00000070: d43c 433a bf8a 7bba 44b8 6b39 7468 a03a

exp_avg_sq f4 [32]
1.1724862e-05 2.8538661e-05 3.3282675e-05 2.0391386e-05 1.6763415e-05 2.0831192e-05 9.495229e-06 9.037317e-06
3.382454e-05 1.4008865e-05 1.9933936e-05 9.131727e-06 1.4567133e-05 1.637539e-05 1.0749974e-05 2.2872513e-05
2.1140866e-05 7.5827747e-06 1.6819282e-05 3.0673997e-05 1.2423663e-05 1.1513358e-05 2.0807096e-05 1.4615656e-05
1.2710766e-05 1.9863104e-05 1.3166596e-05 1.4529132e-05 2.0469126e-05 1.2743666e-05 1.8368035e-05 1.4453514e-05
00000000: e6b5 4437 4f66 ef37 0099 0b38 2b0e ab37
00000010: 299f 8c37 a5be ae37 b34d 1f37 fb9e 1737
00000020: d3de 0d38 9e07 6b37 cd37 a737 7834 1937
00000030: 5c65 7437 e25d 8937 c95a 3437 59de bf37
00000040: aa57 b137 8a6f fe36 2217 8d37 f4a7 0038
00000050: 3a6f 5037 7f29 4137 e68a ae37 c435 7537
00000060: 5340 5537 b19f a637 19e6 5c37 26c2 7337
00000070: 1db5 ab37 a1cd 5537 0e15 9a37 5f7d 7237

exp_avg f4 [10, 32]
-0.0055900123 -0.0026975628 -2.1049582e-05 -0.010303328 -0.0023778514 0.0023155985 0.0026633 0.0010746348
0.00051206426 0.00077081035 -0.005148936 0.002331794 -0.003948681 0.0006771958 -0.00556367 7.027223e-05
0.0037424555 -0.0007536207 -0.0028490438 0.0029148762 0.0048909048 -0.0009995914 0.006444462 0.0033261399
0.0018992763 0.0011951445 0.0028161819 0.0035303603 0.0038918941 -0.0028592716 0.0011816444 -0.0077006356
0.000414079 -1.8806257e-05 4.1216146e-05 0.0007295707 0.0039615794 -0.0018971132 0.0033367928 0.0029724154
0.0008785417 0.0026264018 0.00071947544 0.0025190562 0.0013588427 0.0067867655 0.00032879968 0.0011695202
0.0023900084 0.002759528 0.0011638894 0.0022535855 0.0027961151 0.0032741972 0.0071380655 0.0002896414
0.0032130703 0.0027319328 0.0061957124 0.0013191593 0.0013817596 0.0010041194 -4.917616e-05 0.0025455893
0.00078886905 0.0056896834 0.00045602745 -0.005026372 0.0021747474 0.0022989104 0.00010358996 0.0049461806
0.0038243697 0.0023670972 0.003160315 0.0050644046 0.009754881 -0.0012833072 0.0126777785 -0.0028748473
-0.006122176 0.0054632374 5.7746776e-05 0.000419955 0.00156087 0.0012182847 0.00512646 -0.0020809115
-0.0029585196 0.0022100257 -0.006877866 0.0034072918 0.0094034765 0.0039834566 0.005142207 0.0032499335
0.017437596 0.010438764 0.011990411 0.038960766 0.019449633 0.005407796 0.029066326 0.001649831
0.00532576 0.010932251 0.01904277 0.023088295 0.007419979 0.010018327 0.031038538 0.02674167
0.018080331 0.03650694 0.015176402 0.0046477006 0.0007487231 0.03602472 0.0015682284 0.00994704
0.0050203307 -0.0007231645 0.029761186 0.020864919 1.9050856e-05 0.0061347825 0.00052993157 0.0074709407
-0.00046573524 -0.012412994 -0.006894796 -0.0018460851 -0.017843714 -0.0048567383 -0.007380656 -0.01026711
-0.0023736402 -0.007178568 -0.0032800504 -0.018780332 -0.014409892 -0.019805703 -0.029043674 -0.010919483
-0.004097715 -0.031616464 -0.006470142 -0.012644751 -0.015446209 -0.02659967 -0.027530724 0.0027060045
-0.004063858 -0.0026832353 -0.010315553 -0.02246559 -0.013604113 -0.003976659 -0.0013831352 -0.004264459
-0.016368676 -0.0017495343 -0.011669431 -0.025206812 -0.0014549122 0.0024970726 -0.010524769 0.0030642827
-0.005798849 -0.008377826 -0.0056360774 -0.0009868867 0.00678559 0.006670964 -0.020395266 -0.009857201
-0.016847339 -0.013352865 -0.004394854 0.0004971587 -0.0005522737 -0.0140223 0.006976155 -0.008073692
0.006991904 0.00031465018 -0.012329955 -0.010992844 0.0021837011 -0.0017994982 0.0011968476 -0.0068961987
-0.0013612137 -0.0013581921 0.0003377025 -0.012322532 -0.0011001938 0.0002793353 -0.00027397863 0.0048107402
-0.0012799904 0.0005214737 0.00089758413 0.0042665093 0.0015761236 0.0035741306 0.0011143574 0.0016792757
0.00078131736 0.0010550816 -0.0022971511 0.0062855245 0.004404793 -0.0023149045 0.0073013976 0.00044106354
0.0009852983 0.0017313589 -0.004750104 -8.939059e-05 0.0034131738 0.0014986366 0.00032789903 0.0015003254
0.004140128 0.0074836346 0.0012503184 0.002152898 0.009416064 -0.007999062 0.0021879887 0.016043078
-0.004298092 -0.0036148361 0.0038989417 0.025261737 0.010958482 -0.0033098431 0.011384928 -0.00517164
0.0014704246 0.010494821 0.0016938194 -0.003683532 0.009522406 0.009103371 0.0016353587 -0.0041150018
-0.006465231 -0.0023087317 0.0011421085 -0.0020106335 -0.006755288 0.014170508 -0.009032153 0.0035709902
00000000: 6c2c b7bb 98c9 30bb a293 b0b7 4acf 28bc
00000010: bad5 1bbb 4cc1 173b c28a 2e3b c3da 8c3a
00000020: 0d3c 063a 3510 4a3a 68b8 a8bb 03d1 183b
00000030: f063 81bb d785 313a 724f b6bb 1e5f 9338
00000040: fc43 753b a18e 45ba 06b7 3abb 8207 3f3b
00000050: e243 a03b b904 83ba 112c d33b 5efb 593b
00000060: 23f1 f83a 65a6 9c3a b18f 383b 9e5d 673b
00000070: 260f 7f3b 9e62 3bbb 68e1 9a3a 9d55 fcbb
00000080: be18 d939 21c2 9db7 80df 2c38 a940 3f3a
00000090: 23d0 813b 8ea8 f8ba 18ae 5a3b dbcc 423b
000000a0: ef4d 663a b61f 2c3b 2e9b 3c3a c016 253b
000000b0: 321b b23a 8463 de3b bf62 ac39 964a 993a
000000c0: b0a1 1c3b 33d9 343b a68d 983a e4b0 133b
000000d0: 073f 373b ea93 563b 6fe6 e93b 03db 9739
000000e0: 6092 523b 3a0a 333b 6705 cb3b a4e7 ac3a
000000f0: 291c b53a a89c 833a 8042 4eb8 e7d3 263b
00000100: 1bcc 4e3a 8670 ba3b f816 ef39 44b4 a4bb
00000110: 3586 0e3b 51a9 163b 703e d938 9213 a23b
00000120: 47a2 7a3b 4d21 1b3b 4a1d 4f3b 4ef3 a53b
00000130: f0d2 1f3c a534 a8ba 75b6 4f3c ef67 3cbb
00000140: 899c c8bb f504 b33b 2135 7238 682d dc39
00000150: 1b96 cc3a daae 9f3a ddfb a73b e75f 08bb
00000160: b9e3 41bb 14d6 103b b95f e1bb df4c 5f3b
00000170: 0a11 1a3c a887 823b f57f a83b d6fc 543b
00000180: 4ad9 8e3c 5907 2b3c 6e73 443c 5395 1f3d
00000190: d654 9f3c e133 b13b 811c ee3c 243f d83a
000001a0: b783 ae3b 2f1d 333c 95ff 9b3c aa23 bd3c
000001b0: 4c23 f33b e923 243c 8844 fe3c 5911 db3c
000001c0: 341d 943c 4d88 153d 72a6 783c bd4b 983b
000001d0: f545 443a a88e 133d 038d cd3a e9f8 223c
000001e0: 9681 a43b c092 3dba bbcd f33c e8ec aa3c
000001f0: 67cf 9f37 4906 c93b 1beb 0a3a cbce f43b
00000200: ed2d f4b9 df5f 4bbc beed e1bb 56f8 f1ba
00000210: fb2c 92bc 4625 9fbb 6ed9 f1bb 6137 28bc
00000220: 138f 1bbb 313a ebbb 1df6 56bb 36d9 99bc
00000230: 7817 6cbc 923f a2bc 00ed edbc a2e7 32bc
00000240: 2046 86bb 4480 01bd 7c03 d4bb ee2b 4fbc
00000250: 1912 7dbc 8de7 d9bc 1d88 e1bc 3957 313b
00000260: 1d2a 85bb 38d9 2fbb 9102 29bc c209 b8bc
00000270: c9e3 5ebc a24e 82bb 514a b5ba e0bc 8bbb
00000280: 9a17 86bc a150 e5ba 2431 3fbc 847e cebc
00000290: c1b2 beba eda5 233b 1570 2cbc 22d2 483b
000002a0: 4504 bebb 2643 09bc d8ae b8bb 6c5a 81ba
000002b0: a859 de3b 1a98 da3b f913 a7bc 1980 21bc
000002c0: 6e03 8abc fac5 5abc b502 90bb c153 023a
000002d0: 76c6 10ba cabd 65bc 3b98 e43b 8547 04bc
000002e0: 581c e53b a2f7 a439 9403 4abc 541b 34bc
000002f0: 6d1c 0f3b 24dd ebba 8bdf 9c3a 82f9 e1bb
00000300: c16a b2ba 5d05 b2ba aa0d b139 72e4 49bc
00000310: 6134 90ba c073 9239 caa4 8fb9 6aa3 9d3b
00000320: 5ac5 a7ba 82b3 083a da4b 6b3a 13ce 8b3b
00000330: ef95 ce3a f63b 6a3b a10f 923a 241b dc3a
00000340: 52d1 4c3a aa4a 8a3a cd8b 16bb cdf6 cd3b
00000350: 1556 903b a7b5 17bb 9040 ef3b 8c3e e739
00000360: 2025 813a c4ee e23a c3a6 9bbb 3577 bbb8
00000370: 8eaf 5f3b e66d c43a dde9 ab39 91a6 c43a
00000380: e9a9 873b 4739 f53b b9e1 a33a a317 0d3b
00000390: d645 1a3c 7f0e 03bc 5c64 0f3b c66c 833c
000003a0: 02d7 8cbb e3e6 6cbb 6385 7f3b b4f1 ce3c
000003b0: 348b 333c f4e9 58bb d987 3a3c dc76 a9bb
000003c0: 43bb c03a 78f2 2b3c 2603 de3a 6967 71bb
000003d0: de03 1c3c 4e26 153c 8859 d63a 23d7 86bb
000003e0: 4ada d3bb 174e 17bb cdb2 953a d5c4 03bb
000003f0: 775b ddbb 6b2b 683c 98fb 13bc 4607 6a3b

exp_avg_sq f4 [10, 32]
0.00082504615 0.0009135652 1.7613513e-05 0.0011579673 0.0017281425 0.00021510298 0.0004811827 0.00043070473
0.00015828297 0.00045839153 0.00091661594 0.004214947 0.00028060807 0.00035304527 0.0027178905 0.00025600687
0.00037048652 0.003852095 7.096641e-05 0.0002516757 0.00078992464 0.0017056996 0.001929603 0.00010494867
0.00038116195 2.3555021e-05 0.00049962586 0.00093861064 0.0012199681 0.00089772505 0.00036942874 0.0013496313
0.00027046495 0.00034161733 0.00026317764 0.001144665 0.0002649308 0.0007956467 0.0012818176 0.00012105242
0.0001103641 0.0012201089 0.0003965972 0.0008643661 0.00013892577 0.0010178001 0.0019077562 0.0034293623
0.00051867665 0.0032914332 5.0764447e-05 0.00076321146 0.0002753663 0.0014358575 0.00075778074 0.0006362032
0.0010455444 0.00043817572 0.0028851698 0.002697248 0.00026950327 9.2375296e-05 0.0009018316 0.000635282
0.00056947616 0.00091531326 0.00015209995 0.0017501223 0.00080449355 0.00026847053 0.0008340635 0.0011013098
0.00037972935 0.0015550304 0.0006597305 0.0028455926 0.0006716347 0.0011668296 0.0028024442 0.0014966291
0.0024616353 0.0041024606 0.00021676558 0.0010233088 0.0014618717 0.0020662325 0.002326586 0.00086382544
0.00066661916 0.0010031924 0.0025625117 0.00083157513 0.0010182427 0.0004021196 0.00042420378 0.0014232271
0.0013122734 0.0010065552 0.0011086976 0.005166005 0.0027157534 0.00047014712 0.0035439827 0.0011817532
0.0005239267 0.0021035888 0.002265155 0.004865641 0.00059020985 0.0010584713 0.005247349 0.0029035758
0.0034390765 0.008103999 0.0012758331 0.00084453094 0.0014868401 0.0046286318 0.0018315982 0.00070728594
0.00090883195 0.0009388739 0.0061709736 0.002787259 0.0011306476 0.0005038046 0.00022829577 0.0013260626
5.1551404e-05 0.0008219362 0.00011115438 7.8872596e-05 0.0020554108 0.001085628 0.001697383 0.0012285043
0.00011588415 0.00086381676 0.00035468742 0.0028848338 0.0019752607 0.002174464 0.002818582 0.00204669
0.000106335145 0.0034310843 0.00078871736 0.00085627893 0.00056690734 0.004301471 0.0016963622 0.00023244941
0.00073174643 5.156585e-05 0.0015196434 0.0015820309 0.0010728603 0.0008924299 0.0013165832 0.00044234688
0.0011071065 0.0015487042 0.0009800026 0.0050980244 0.003395705 0.00024123125 0.002101588 0.0003902197
0.0002508255 0.0007731232 0.0018455198 0.0050004944 0.000673681 0.0016711198 0.0041444027 0.00067206065
0.0011537772 0.0062809302 0.0010668788 0.0005520235 0.00063510914 0.004405278 0.0018458442 0.00060613645
0.0004403882 7.8499594e-05 0.003534956 0.0029014356 0.0015035368 0.00056224695 0.000642594 0.00089605333
0.00032051268 0.00081062806 2.9950783e-05 0.0019995715 0.0026739805 0.0002609619 0.000677163 0.00026945685
0.00018055859 0.0002350616 0.00034292362 0.0038438758 0.00022599834 0.001677574 0.0014665002 0.0003928839
0.00047640598 0.004401852 0.00013198593 0.0008792756 0.00047485626 0.0026982608 0.002918876 0.00013823289
0.00052834133 0.00015658703 0.0013273401 0.0014352079 0.00163058 0.0003348296 0.00028503046 0.00060682214
0.00096282753 0.0005648249 8.42344e-05 0.00059329293 0.0018305148 0.0009183449 0.0026567893 0.0013469332
0.00032777028 0.0012011447 0.0021213752 0.0040295506 0.0016760058 0.00048684588 0.004180283 0.0034297076
0.0008754154 0.004007906 0.00031666117 0.0004930264 0.00042449657 0.0034598445 0.0004489716 0.0012026743
0.0006227167 0.00090508466 0.002151037 0.0017929089 0.0005148649 0.0010408572 0.0010138184 0.00054185855
00000000: e947 583a 537c 6f3a bbc0 9337 efc6 973a
00000010: d782 e23a 448d 6139 4047 fc39 36d0 e139
00000020: c3f8 2539 4554 f039 0e49 703a 8a1d 8a3b
00000030: 941e 9339 ef18 b939 a31e 323b a938 8639
00000040: dc3d c239 6e73 7c3b cdd3 9438 57f3 8339
00000050: f212 4f3a c891 df3a bcea fc3a e317 dc38
00000060: b1d6 c739 0698 c537 53f9 023a 180d 763a
00000070: 56e7 9f3a 4f55 6b3a e3af c139 1de6 b03a
00000080: 31cd 8d39 1a1b b339 1bfb 8939 9508 963a
00000090: 69e6 8a39 f292 503a a902 a83a 86dd fd38
000000a0: 4673 e738 10ec 9f3a 60ee cf39 a196 623a
000000b0: 9aac 1139 b467 853a ad0d fa3a 27bf 603b
000000c0: cdf7 073a 16b5 573b e9eb 5438 4112 483a
000000d0: 0a5f 9039 6233 bc3a cea5 463a e0c6 263a
000000e0: a60a 893a f3ba e539 1e15 3d3b 50c4 303b
000000f0: 1e4c 8d39 9cb9 c138 e568 6c3a 0e89 263a
00000100: e648 153a a2f1 6f3a 057d 1f39 5c64 e53a
00000110: a6e4 523a 81c1 8c39 0ea5 5a3a d359 903a
00000120: 6916 c739 29d2 cb3a c4f1 2c3a 1f7d 3a3b
00000130: a410 303a 4ef0 983a 36a9 373b 8a2a c43a
00000140: 6353 213b ef6d 863b 914b 6339 8c20 863a
00000150: 469c bf3a a169 073b a379 183b 5872 623a
00000160: 0ec0 2e3a 8d7d 833a d0ef 273b 10fe 593a
00000170: 8e76 853a 94d3 d239 ab67 de39 948b ba3a
00000180: 9700 ac3a 63ee 833a b851 913a 9747 a93b
00000190: c8fa 313b 147e f639 2a42 683b 0fe5 9a3a
000001a0: 2058 093a 5ddc 093b ff72 143b f46f 9f3b
000001b0: 50b8 1a3a 67bc 8a3a f4f1 ab3b eb49 3e3b
000001c0: 2162 613b a3c6 043c db39 a73a 8363 5d3a
000001d0: 13e2 c23a c7ab 973b 3d12 f03a 2869 393a
000001e0: ae3e 6e3a c31e 763a e135 ca3b 72aa 363b
000001f0: 3d32 943a c111 043a ae62 6f39 47cf ad3a
00000200: e638 5838 3477 573a 8e1b e938 6768 a538
00000210: 12b4 063b a24b 8e3a b97a de3a c405 a13a
00000220: d406 f338 c371 623a 57f5 b939 7b0f 3d3b
00000230: 6073 013b 7481 0e3b f6b7 383b c321 063b
00000240: 3f00 df38 0bdc 603b edc1 4e3a e877 603a
00000250: 829c 143a 5bf3 8c3b 7858 de3a aabd 7339
00000260: acd2 3f3a 6948 5838 c52e c73a 265c cf3a
00000270: 389f 8c3a f5f1 693a 3491 ac3a cbea e739
00000280: 541c 913a e4fd ca3a 6e73 803a 540d a73b
00000290: 7a8a 5e3b 05f3 7c39 ccba 093b 6796 cc39
000002a0: 3b81 8339 6bab 4a3a 5ee5 f13a 30db a33b
000002b0: f799 303a 7a09 db3a c5cd 873b 3a2d 303a
000002c0: 573a 973a 43d0 cd3b 83d6 8b3a acb5 103a
000002d0: 747d 263a 265a 903b 41f0 f13a 21e5 1e3a
000002e0: e7e3 e639 26a0 a438 b8aa 673b 0326 3e3b
000002f0: 5312 c53a c163 133a c173 283a 1fe5 6a3a
00000300: 7c0a a839 5480 543a d13e fb37 3e0b 033b
00000310: f33d 2f3b b7d1 8839 a483 313a e345 8d39
00000320: 5454 3d39 de7a 7639 6eca b339 89e9 7b3b
00000330: f8f9 6c39 0be2 db3a 9537 c03a fcfb cd39
00000340: 21c6 f939 693d 903b b465 0a39 307f 663a
00000350: 21f6 f839 4ed5 303b 9d4a 3f3b 9cf2 1039
00000360: 6380 0a3a 8331 2439 25fa ad3a 961d bc3a
00000370: 30b9 d53a 118c af39 2470 9539 2513 1f3a
00000380: 4366 7c3a c210 143a 00a7 b038 3787 1b3a
00000390: e2ed ef3a 15bd 703a 871d 2e3b 948b b03a
000003a0: 95d8 ab39 ba6f 9d3a c506 0b3b 520a 843b
000003b0: 6cad db3a 593f ff39 c1fa 883b f2c4 603b
000003c0: 227c 653a c154 833b 8b05 a639 713e 013a
000003d0: f78e de39 8fbe 623b f363 eb39 0ea3 9d3a
000003e0: cf3d 233a 3443 6d3a 6af8 0c3b 0a00 eb3a
000003f0: 00f8 063a 5f6d 883a 1ae2 843a 830b 0e3a

exp_avg f4 [10]
-6.188507e-05 0.00057783973 0.0006264404 0.003374806 -0.0025563654 -0.0011083136 -1.3525526e-05 0.00046330548
0.00023940098 -0.0015417653
00000000: 4bc8 81b8 2b7a 173a b437 243a d92b 5d3b
00000010: b288 27bb d544 91ba b1eb 62b7 cfe7 f239
00000020: b607 7b39 0f15 caba

exp_avg_sq f4 [10]
2.1228609e-05 2.855587e-05 3.138253e-05 5.6275378e-05 3.7245405e-05 4.426332e-05 2.7830216e-05 4.1367715e-05
4.739623e-05 5.3891854e-05
00000000: 1714 b237 448b ef37 bca0 0338 3a09 6c38
00000010: f337 1c38 61a7 3938 ef74 e937 3f82 2d38
00000020: 50cb 4638 f009 6238
