notebooks/logs/lightning_logs/version_0/checkpoints/epoch=39-step=34400.ckpt (torch, 312114 bytes, 12 tensors)

model1.1.weight f4 [32, 784]
-0.02820498 -0.055363845 -0.0012537617 -0.05043395 -0.024568513 -0.038838238 -0.02767295 -0.03497906
-0.0067335046 -0.0035238063 -0.0316687 -0.049634736 0.0062196916 -0.007408181 -0.004725383 -0.042867318
-0.021508185 -0.02934448 -0.010330975 -0.02063272 -0.010758168 -0.017454453 -0.007990775 0.012590185
0.010544365 -0.010069072 -0.04543969 -0.05432797 -0.05121844 -0.023165619 -0.026900014 -0.054249384
-0.0029721558 0.0065867524 -0.027408527 -0.057636593 -0.01976951 -0.025663223 -0.051710095 -0.016598556
-0.033629857 -0.048306946 -0.03613991 -0.032042153 0.04206697 -0.020217944 -0.062124092 -0.07182717
-0.017251385 -0.00025246473 -0.0065015 -0.06146101 -0.02210673 -0.01987985 0.011859556 -0.04501699
-0.0027589162 0.00046927624 -0.0017008671 -0.025611717 0.0029441176 -0.023510188 -0.053193793 -0.07354391
-0.016491057 -0.024743874 0.021884283 -0.026159469 -0.015555641 -0.066180155 -0.0954273 -0.15096363
-0.058226395 -0.05442455 -0.06340714 -0.08844511 -0.05838205 -0.04670273 -0.07608603 -0.057057198
-0.03743533 -0.040235437 -0.03423728 -0.01137635 -0.04513325 -0.045082 0.008531987 -0.017114243
-0.03640746 -0.02782591 -0.015077509 -0.05704515 -0.021483757 -0.040057432 -0.0009681754 0.1007345
-0.047725275 -0.08679551 0.1198174 0.057962894 0.08726056 0.1208718 0.062271576 -0.04917901
0.051387902 0.040826764 -0.039130177 -0.047082286 0.0007242953 0.0025739411 -0.046320494 -0.033265162
-0.030504405 -0.0020566355 -0.041568674 0.006375908 -0.030971663 -0.068630695 -0.08234572 0.00067095214
-0.0004457039 -0.020701073 -0.048959136 -0.01221405 -0.061622772 -0.11182326 -0.088617526 0.026924908
-0.021403477 0.076695874 0.08144197 0.02686699 0.06938711 -0.00716969 0.03212216 0.07694373
0.090488166 0.063144006 -0.047354408 0.0011819457 -0.02510414 -0.026109604 -0.045855246 -0.012671237
-0.050202265 -0.050993305 -0.055327073 0.043085195 0.10472953 0.020840555 -0.04406584 -0.02055875
-0.0032996852 0.012565526 0.035806887 0.0007054808 0.17081465 0.1436363 0.097827 0.06574099
0.008907534 -0.10083122 -0.020302376 -0.09229756 0.059638057 0.08998897 0.024031008 -0.023943983
-0.046739243 0.0006638708 -0.019927688 -0.01174064 0.03069039 0.042146616 0.02341795 -0.10468887
0.0653466 0.003361687 -0.10552079 -0.1326585 -0.012027486 0.0508079 0.011609982 0.08900482
0.081508756 0.07298235 0.06939991 0.101373 -0.041748766 0.06142876 0.13808727 -0.012976573
-0.04212465 0.023988752 -0.044388425 -0.051296618 -0.055936813 -0.030592076 -0.03386107 0.05705836
-0.023137217 0.05329781 0.03897461 -0.02949272 0.052069712 0.13572083 -0.040088687 -0.026246788
0.036553178 0.028045906 -0.037999295 0.00024104465 0.0040726094 0.12595676 0.08831022 0.07235327
0.04582041 0.08341671 0.12059509 0.14319438 0.17513277 0.09870259 -0.010500297 -0.0058448757
-0.016501894 -0.048542324 0.03113232 0.027237432 0.011539549 -0.027169554 -0.020099115 0.018089281
0.05066394 0.10256982 0.062164456 -0.014769773 0.046382118 0.019914422 0.04058392 0.062034667
0.06115519 -0.038636956 0.0028874355 0.008024666 0.03913921 0.034272775 0.10211558 0.1454496
0.05541539 0.038605683 -0.0483639 -0.048066024 -0.05527752 -0.006127589 -0.004643616 0.037552632
00000000: 210e e7bc 33c5 62bd 4355 a4ba d493 4ebd
00000010: e843 c9bc d814 1fbd 62b2 e2bc 3446 0fbd
00000020: bba4 dcbb a9ef 66bb 0ab7 01bd cb4d 4bbd
00000030: 8ece cb3b 54c0 f2bb 63d7 9abb a495 2fbd
00000040: ef31 b0bc d663 f0bc 4043 29bc f305 a9bc
00000050: 0743 30bc a4fc 8ebc bdeb 02bc 1047 4e3c
00000060: 46c2 2c3c c0f8 24bc f81e 3abd 0187 5ebd
00000070: 6dca 51bd d3c5 bdbc 6b5d dcbc 9a34 5ebd
00000080: 80c8 42bb afd5 d73b d987 e0bc 5914 6cbd
00000090: abf3 a1bc ae3b d2bc f7cd 53bd b2f9 87bc
000000a0: 76bf 09bd 81dd 45bd 7107 14bd a23e 03bd
000000b0: 6a4e 2c3d 1aa0 a5bc d575 7ebd 201a 93bd
000000c0: c752 8dbc 3e5d 84b9 890a d5bb 8abe 7bbd
000000d0: 2c19 b5bc 11db a2bc 954e 423c bc63 38bd
000000e0: efce 34bb 3109 f639 a1ef deba aacf d1bc
000000f0: 19f2 403b 7098 c0bc bce1 59bd 319e 96bd
00000100: 4118 87bc aab3 cabc ab46 b33c 624c d6bc
00000110: 16dd 7ebc 7689 87bd 636f c3bd 3696 1abe
00000120: cd7e 6ebd 47ec 5ebd 9adb 81bd b622 b5bd
00000130: 0422 6fbd 5d4b 3fbd fed2 9bbd cfb4 69bd
00000140: ca55 19bd eacd 24bd 643c 0cbd df63 3abc
00000150: a5dd 38bd e7a7 38bd bfc9 0b3c 2b33 8cbc
00000160: fd1f 15bd 2af3 e3bc a807 77bc 2da8 69bd
00000170: b4fe afbc 4313 24bd 27cd 7dba e44d ce3d
00000180: 947b 43bd d8c1 b1bd d362 f53d 806a 6d3d
00000190: aab5 b23d a28b f73d 7b10 7f3d ee6f 49bd
000001a0: 1f7c 523d f739 273d f746 20bd 5bd9 40bd
000001b0: a3de 3d3a 91af 283b 8fba 3dbd 0d41 08bd
000001c0: 60e4 f9bc 9ec8 06bb ea43 2abd feec d03b
000001d0: 49b8 fdbc 408e 8cbd dfa4 a8bd d6e2 2f3a
000001e0: 5dad e9b9 4c95 a9bc 6089 48bd 701d 48bc
000001f0: 2968 7cbd 9803 e5bd 1b7d b5bd a091 dc3c
00000200: 5856 afbc ba12 9d3d 0ccb a63d 2918 dc3c
00000210: d41a 8e3d b8ef eabb 8792 033d ad94 9d3d
00000220: dc51 b93d a551 813d b2f6 41bd 84eb 9a3a
00000230: 33a7 cdbc cfe3 d5bc b6d2 3bbd 059b 4fbc
00000240: e4a0 4dbd 5bde 50bd a49e 62bd 1a7a 303d
00000250: 707c d63d d0b9 aa3c 627e 34bd d36a a8bc
00000260: 883f 58bb a3df 4d3c 3eaa 123d 04f0 383a
00000270: 09ea 2e3e 6515 133e 8659 c83d 36a3 863d
00000280: e8f0 113c 9980 cebd 2b51 a6bc 8106 bdbd
00000290: 0947 743d 234c b83d addc c43c 2c26 c4bc
000002a0: a671 3fbd 9d07 2e3a 643f a3bc d05b 40bc
000002b0: 6a6a fb3c eea1 2c3d 00d7 bf3c 1e67 d6bd
000002c0: 70d4 853d c04f 5c3b 491b d8bd a1d7 07be
000002d0: ef0e 45bc f21b 503d cb37 3e3c 2948 b63d
000002e0: 10ee a63d c577 953d 8a21 8e3d a69c cf3d
000002f0: c100 2bbd b99c 7b3d c066 0d3e b19b 54bc
00000300: e68a 2cbd 0f84 c43c a3d0 35bd 671c 52bd
00000310: 001e 65bd 3c9c fabc e8b1 0abd 07b6 693d
00000320: 438a bdbc ce4e 5a3d d7a3 1f3d b79a f1bc
00000330: 0d47 553d 67fa 0a3e 0934 24bd 8103 d7bc
00000340: c9b8 153d 87c0 e53c 26a5 1bbd eec0 7c39
00000350: 8673 853b cffa 003e fddb b43d f42d 943d
00000360: 2fae 3b3d 61d6 aa3d 8ffa f63d 8ca1 123e
00000370: 0156 333e 9524 ca3d 7009 2cbc 5f86 bfbb
00000380: fb2e 87bc 51d4 46bd 3509 ff3c 0921 df3c
00000390: 6010 3d3c af92 debc e6a6 a4bc f92f 943c
000003a0: fe84 4f3d 2010 d23d 28a0 7e3d ebfc 71bc
000003b0: 2dfb 3d3d 9223 a33c 533b 263d 1018 7e3d
000003c0: dd7d 7a3d c941 1ebd 213b 3d3b e479 033c
000003d0: 7050 203d 9c61 0c3d f921 d13d bdf0 143e
000003e0: 3ffb 623d fe20 1e3d 3a19 46bd e1e0 44bd
000003f0: ae6a 62bd f1c9 c8bb 7929 98bb cad0 193d

model1.1.bias f4 [32]
0.024582386 0.0006188808 0.052904677 0.046888873 -0.033666145 0.0028507547 -0.029642532 0.04512164
-0.025504122 -0.019061942 -0.0007538565 -0.0038333086 -0.02902214 0.023108238 -0.005673075 0.044743244
-0.013424696 0.061695565 0.002714707 -0.012438637 -0.0046845144 -0.018991672 -0.033961643 0.018149996
0.031168964 -0.012406371 0.03481689 -0.05352354 -0.0070988154 0.05694459 -0.0075561926 0.02575304
00000000: 0061 c93c 633c 223a 93b2 583d 8c0e 403d
00000010: 83e5 09bd bad3 3a3b e5d4 f2bc 78d1 383d
00000020: 05ee d0bc ca27 9cbc 749e 45ba 3f38 7bbb
00000030: d7bf edbc 7d4d bd3c 34e5 b9bb b144 373d
00000040: 42f3 5bbc 7db4 7c3d 3ae9 313b 6dcb 4bbc
00000050: 8e80 99bb 6c94 9bbc 5d1b 0bbd 4daf 943c
00000060: 0e56 ff3c 1744 4bbc 289c 0e3d 803b 5bbd
00000070: 2e9d e8bb bb3e 693d f099 f7bb 0af8 d23c

model2.0.weight f4 [10, 32]
0.23739314 -0.6114217 0.11036834 -0.11704776 0.40267318 0.34490457 -0.012078483 0.17293043
-0.5218842 0.005648503 -0.33467424 0.22589275 -0.03314143 -0.11294695 0.42546 -0.2800519
0.043294083 0.27729023 0.35751683 0.045086484 -0.14382075 -0.31796527 -0.2059237 -0.26902592
0.090513416 -0.35548073 -0.37573534 0.21976517 -0.24811442 -0.4245799 -0.11829492 -0.053618968
-0.46969315 -0.2951389 -0.28383335 0.13596226 -0.1610967 0.13921577 -0.059259135 -0.07065469
0.19694784 0.24694723 0.4656442 -0.7355367 -0.18547186 0.13444221 -0.037017487 0.31772795
-0.4678928 -0.103543535 -0.21351993 0.06773513 -0.041820962 0.19741006 0.27289748 0.44063348
-0.024585648 0.085504495 -0.34388375 0.09314575 0.07636113 0.08318055 0.11505458 0.12717593
0.15895586 -0.030065626 0.170495 -0.2628009 -0.14679128 0.3107116 -0.40180928 0.07948385
0.48729628 -0.019920465 -0.5865439 -0.36109248 -0.2038028 -0.21485265 0.3176342 0.3698928
-0.025838895 0.17255343 0.014802446 -0.15941195 -0.18431309 -0.26388326 0.1408258 0.27275944
0.0070927194 0.1772792 0.20448305 -0.816341 0.28459552 -0.18281093 -0.074652456 0.27015805
0.06946997 0.11294848 -3.5098088e-05 -0.4509656 0.23536423 -0.0877307 0.097823374 0.008760203
-0.09086242 -0.7096579 -0.057206992 0.17505923 -0.09105307 0.20222896 -0.07811199 0.085504815
-0.35065547 0.01063117 -0.24017887 0.47064617 -0.36176044 0.30798945 0.31609443 0.25054273
0.09234891 -0.18613967 0.123411775 0.095955335 0.06789487 0.14724013 0.0015199081 -0.054085337
0.2665725 0.2506436 0.30374035 0.2504093 -0.40635657 -0.27160832 -0.08934838 0.099591516
0.10807984 0.24363278 -0.046212874 -0.17547765 0.2920057 -0.09967487 -0.49128228 0.15788709
0.01368603 -0.99170023 0.06446941 -0.4808657 -0.17217343 0.08674864 0.26980004 -0.42832187
-0.8629177 -0.19346079 -0.5820887 0.35210893 -0.66510457 -0.14588952 0.1070583 -0.026590342
0.023550168 -0.08753765 0.055773538 0.1920699 -0.61007005 0.03243577 0.21206778 0.11360537
-0.32543802 -0.15163481 0.4070024 0.19646993 0.015333971 -0.65148443 -0.33593988 -0.23320022
-0.09753638 0.24015114 -0.55157405 0.14727496 0.3750119 0.29712796 -0.8194577 -0.073345244
0.34347805 0.15010814 0.20984304 -0.10358511 -0.19434676 0.10665156 0.04633299 -0.23616917
-0.107141234 -0.45850134 -0.28871885 -0.059591155 0.1812261 -0.018565092 0.16408758 0.11808037
-0.47927007 0.20347255 0.20382887 -0.23212694 0.36898935 0.1340964 -0.470389 0.22236367
0.21040593 0.36208698 0.24081181 0.20088595 0.07157917 -0.41491532 -0.3501026 -0.34562257
-0.34134904 0.078362346 0.20990913 0.084158465 -0.41966194 -0.2659117 -0.78226846 0.31176916
0.238388 0.11798204 -0.34612247 0.19854105 0.14594609 0.3091256 -0.67917 -0.5857384
0.25717178 -0.13794576 0.24096656 0.09352002 -0.29089847 0.051395286 0.111119874 0.23389004
0.09022518 0.025787149 -0.24179888 0.19320297 0.16428734 -0.80338883 0.12393236 0.26945877
0.41879603 0.2586154 -0.23012945 0.13652046 -0.2736025 -0.05187365 -0.033307366 -0.51713353
00000000: 3017 733e 2286 1cbf cc08 e23d bcb6 efbd
00000010: 2e2b ce3e 5597 b03e d4e4 45bc ad14 313e
00000020: 349a 05bf 1417 b93b 6c5a abbe 6e50 673e
00000030: 4fbf 07bd bb50 e7bd e5d5 d93e f662 8fbe
00000040: 2355 313d fcf8 8d3e 720c b73e 9bac 383d
00000050: bf45 13be 58cc a2be aadd 52be c4bd 89be
00000060: 195f b93d 9201 b6be 6260 c0be 1f0a 613e
00000070: b511 7ebe 8962 d9be 9b44 f2bd 909f 5bbd
00000080: 9f7b f0be 721c 97be 9b52 91be b139 0b3e
00000090: 89f6 24be 948e 0e3e b5b9 72bd 68b3 90bd
000000a0: b2ac 493e bcdf 7c3e eb68 ee3e 224c 3cbf
000000b0: 56ec 3dbe 38ab 093e a69f 17bd 3dad a23e
000000c0: a58f efbe a20e d4bd f8a4 5abe b7b8 8a3d
000000d0: 754c 2bbd dd25 4a3e 38b9 8b3e b69a e13e
000000e0: d767 c9bc fb1c af3d 8811 b0be 33c3 be3d
000000f0: 3963 9c3d 905a aa3d bca1 eb3d 683a 023e
00000100: 53c5 223e 304c f6bc 3e96 2e3e d78d 86be
00000110: 7450 16be 9715 9f3e f2b9 cdbe 6ec8 a23d
00000120: e67e f93e 3e30 a3bc be27 16bf 1de1 b8be
00000130: aeb1 50be 5502 5cbe f3a0 a23e 9762 bd3e
00000140: 17ac d3bc d9b1 303e f585 723c e33c 23be
00000150: 92bc 3cbe b51b 87be a334 103e 20a7 8b3e
00000160: 0b6a e83b ae88 353e 0164 513e b9fb 50bf
00000170: 81b6 913e ca32 3bbe 63e3 98bd 2852 8a3e
00000180: 4646 8e3d 8851 e73d 4936 13b8 f7e4 e6be
00000190: 5203 713e 27ac b3bd 9f57 c83d f486 0f3c
000001a0: 1416 babd 24ac 35bf e151 6abd ba42 333e
000001b0: 087a babd 1c15 4f3e 2ef9 9fbd 261d af3d
000001c0: 1d89 b3be 5c2e 2e3c 73f1 75be 89f8 f03e
000001d0: aa38 b9be cbb0 9d3e 21d7 a13e 2347 803e
000001e0: 6d21 bd3d 669b 3ebe 50bf fc3d 3b84 c43d
000001f0: 770c 8b3d 1ec6 163e a737 c73a 9688 5dbd
00000200: 317c 883e 5c54 803e db83 9b3e a635 803e
00000210: f80d d0be 3f10 8bbe 49fc b6bd a3f6 cb3d
00000220: f758 dd3d df7a 793e b649 3dbd 6ab0 33be
00000230: c581 953e 5722 ccbd 5a89 fbbe 27ad 213e
00000240: 5f3b 603c 11e0 7dbf 8a08 843d 0734 f6be
00000250: 3b4e 30be 45a9 b13d 3b23 8a3e 014d dbbe
00000260: 2de8 5cbf 961a 46be c403 15bf 9f47 b43e
00000270: 4b44 2abf 1064 15be 6241 db3d fdd3 d9bc
00000280: 48ec c03c f046 b3bd cb72 643d f9ad 443e
00000290: 8d2d 1cbf 5fdb 043d 4c28 593e efa9 e83d
000002a0: d09f a6be 2846 1bbe 9e62 d03e 6a2f 493e
000002b0: 563b 7b3c afc7 26bf 5000 acbe 0acc 6ebe
000002c0: 27c1 c7bd 2eea 753e f533 0dbf 3fcf 163e
000002d0: 8f01 c03e 2821 983e fbc7 51bf 0836 96bd
000002e0: 5bdc af3e f3b5 193e 18e1 563e 6e24 d4bd
000002f0: d602 47be 226c da3d a9c7 3d3d 55d6 71be
00000300: dd6c dbbd b0c0 eabe f5d2 93be db15 74bd
00000310: 5693 393e d215 98bc 9306 283e 1fd4 f13d
00000320: e362 f5be 1c5b 503e 84b8 503e afb2 6dbe
00000330: 2cec bc3e 9150 093e d4d6 f0be 4db3 633e
00000340: a774 573e 7763 b93e 5f97 763e 0cb5 4d3e
00000350: 1a98 923d c86f d4be a640 b3be 71f5 b0be
00000360: 4dc5 aebe 707c a03d 6bf2 563e 465b ac3d
00000370: eedd d6be 9425 88be bf42 48bf 35a0 9f3e
00000380: fc1b 743e 91a0 f13d f736 b1be 584e 4b3e
00000390: e472 153e b645 9e3e 16de 2dbf f4f2 15bf
000003a0: 05ac 833e a741 0dbe f0bf 763e 6d87 bf3d
000003b0: a5f0 94be dd83 523d d192 e33d df80 6f3e
000003c0: fbc7 b83d 923f d33c 209a 77be 00d7 453e
000003d0: f13a 283e e4aa 4dbf 40d0 fd3d 80f6 893e
000003e0: 6f6c d63e 3d69 843e 0ea7 6bbe 05cc 0b3e
000003f0: a015 8cbe 7779 54bd 4e6d 08bd dd62 04bf

model2.0.bias f4 [10]
0.015310938 0.037645392 0.080715604 -0.084779344 0.061963923 -0.03556944 0.082446046 0.04309652
-0.10079665 -0.14285873
00000000: bada 7a3c 0e32 1a3d 394e a53d cba0 adbd
00000010: e2cd 7d3d 43b1 11bd 79d9 a83d fa85 303d
00000020: 796e cebd 8f49 12be

exp_avg f4 [32, 784]
0.00017076153 0.00017076153 0.00017076153 0.00017076153 0.00017076153 0.00017076153 0.00017076153 0.00017076153
0.00017076153 0.00017076153 0.00017076153 0.00017076153 0.00017076153 0.00017076153 0.00017076153 0.00017076153
0.00017076153 0.00017076153 0.00017076153 0.00017076153 0.00017076153 0.00017076153 0.00017076153 0.00017076153
0.00017076153 0.00017076153 0.00017076153 0.00017076153 0.00017076153 0.00017076153 0.00017076153 0.00017076153
0.00017076153 0.00017076153 0.00017076153 0.00017076153 0.00017076153 0.00017077506 0.00017078263 0.00017076818
0.0001708698 0.0001710107 0.00017256782 0.00017248513 0.00017076718 0.00017076152 0.00017076153 0.00017122667
0.00017130781 0.00017079656 0.00017076153 0.00017076153 0.00017076153 0.00017076153 0.00017076153 0.00017076153
0.00017076153 0.00017076153 0.00017076153 0.00017076153 0.00017076197 0.00017082226 0.000171043 0.00017087745
0.0001707629 0.00017318479 0.00017548687 0.00015353333 0.0001514633 0.00015181262 0.00017004805 0.0001710175
0.00017782267 0.00017608753 0.00017300728 0.00017335264 0.00017426797 0.0001723634 0.00017150374 0.00017058644
0.0001707854 0.00017084896 0.00017076153 0.00017076153 0.00017076153 0.00017076153 0.00017076153 0.00017063593
0.00016893995 0.00017150039 0.00018610398 0.00018195387 0.00017856725 0.00018795313 0.00015865371 8.1968545e-05
9.291428e-05 0.00012078409 0.00024022369 0.00043348223 8.102323e-05 -0.00019524174 -0.00044629668 -0.00038320338
-1.5900385e-05 0.0001714561 0.00015767464 0.00016171482 0.00017117435 0.00017088442 0.00017076153 0.00017076153
0.00017076153 0.00017076153 0.00017076153 0.00017054171 0.00017076024 0.00016156449 0.00017431243 0.00012570749
0.00011505665 0.00013953142 5.2061216e-05 7.780155e-05 0.00022294355 0.0003406087 0.00040781495 0.00020340695
3.0421283e-05 -0.00030716055 -0.00046129056 -0.0007108309 -0.0005319446 0.00023904395 0.00021440107 0.00017106919
0.00017360605 0.00017050195 0.00017068906 0.00017076153 0.00017076153 0.00017076153 0.00017076153 0.00016903307
0.00017078748 9.1056274e-05 8.607557e-05 -0.00019337077 -0.00076483027 -0.00061025 -0.00054167997 -0.0004941648
5.388953e-05 0.00039045754 0.000106109204 0.00026240112 0.0012254178 0.0017223887 0.0011116939 -0.0002302462
-0.00055328826 0.000105324405 -3.941919e-06 -0.00027116385 -0.00013925765 2.6057245e-05 0.00017074434 0.00017076162
0.00017076153 0.00017034488 0.00016963057 0.00017072004 0.00018154888 8.057907e-05 5.3126747e-05 -2.8618337e-05
-0.0003220012 -5.601268e-05 0.00028897295 0.0010083076 0.0011993342 -9.659991e-05 -0.00062111375 7.238799e-05
0.00097203156 0.0020003365 0.0020398414 0.0009110127 -0.00043562107 -0.0002810785 -0.00016755436 -0.00021062323
-0.00018917634 -0.00013747017 0.00017065559 0.00017076153 0.00017076153 0.00016218722 0.00016963057 0.00017033222
0.00016215899 6.6971224e-05 2.6791979e-05 3.223242e-05 0.00021150403 0.00091088127 0.001058843 0.0017433023
0.0008075092 -0.00047534335 -0.00020663606 -0.00034933805 -0.00037836953 0.0007030811 0.00019074707 0.0003136175
-0.001201595 -0.0016173667 -0.00094576174 -0.0005049158 -6.96571e-05 0.00010026142 0.00016418975 0.00017076153
0.00017076153 0.00016998319 0.00017076619 0.00017058158 0.00016047164 8.743737e-05 2.6950906e-06 0.0003274905
0.0011156552 0.00091402774 0.0013176401 0.0013911405 -0.00041168884 -0.0014037039 -0.0009366789 -0.0006776082
-0.0023692655 -0.000289378 0.00043249637 3.3752913e-05 -0.0010926388 -0.0018680518 -0.0014900531 -0.0012005838
-0.0007243617 0.00013596278 0.00015866446 0.00017076153 0.00017076153 0.00017075628 0.00017149955 0.00017332169
00000000: 730e 3339 730e 3339 730e 3339 730e 3339
00000010: 730e 3339 730e 3339 730e 3339 730e 3339
00000020: 730e 3339 730e 3339 730e 3339 730e 3339
00000030: 730e 3339 730e 3339 730e 3339 730e 3339
00000040: 730e 3339 730e 3339 730e 3339 730e 3339
00000050: 730e 3339 730e 3339 730e 3339 730e 3339
00000060: 730e 3339 730e 3339 730e 3339 730e 3339
00000070: 730e 3339 730e 3339 730e 3339 730e 3339
00000080: 730e 3339 730e 3339 730e 3339 730e 3339
00000090: 730e 3339 1512 3339 1d14 3339 3c10 3339
000000a0: 832b 3339 5651 3339 52f3 3439 20dd 3439
000000b0: f70f 3339 720e 3339 730e 3339 4f8b 3339
000000c0: 17a1 3339 da17 3339 730e 3339 730e 3339
000000d0: 730e 3339 730e 3339 730e 3339 730e 3339
000000e0: 730e 3339 730e 3339 730e 3339 730e 3339
000000f0: 910e 3339 c01e 3339 015a 3339 912d 3339
00000100: d10e 3339 f098 3539 e602 3839 cafd 2039
00000110: 1fd2 1e39 e42f 1f39 ed4e 3239 2953 3339
00000120: e975 3a39 23a4 3839 4a69 3539 ffc5 3539
00000130: b4bb 3639 73bc 3439 afd5 3339 73df 3239
00000140: db14 3339 eb25 3339 730e 3339 730e 3339
00000150: 730e 3339 730e 3339 730e 3339 bcec 3239
00000160: 7925 3139 c9d4 3339 e824 4339 dfca 3e39
00000170: c83d 3b39 4915 4539 485c 2639 87e6 ab38
00000180: f9da c238 774d fd38 8ee4 7b39 0045 e339
00000190: 04eb a938 ceb9 4cb9 edfc e9b9 b0e8 c8b9
000001a0: d161 85b7 e5c8 3339 7755 2539 fe91 2939
000001b0: 447d 3339 702f 3339 730e 3339 730e 3339
000001c0: 730e 3339 730e 3339 730e 3339 71d3 3239
000001d0: 1a0e 3339 a369 2939 a3c7 3639 59d0 0339
000001e0: 924a f138 2e4f 1239 4e5c 5a38 6429 a338
000001f0: f4c5 6939 ba93 b239 ffcf d539 a349 5539
00000200: 3531 ff37 640a a1b9 5fd9 f1b9 0e57 3aba
00000210: 3372 0bba dfa7 7a39 d9d0 6039 0961 3339
00000220: 050a 3639 c5c8 3239 fffa 3239 730e 3339
00000230: 730e 3339 730e 3339 730e 3339 783e 3139
00000240: 6a15 3339 77f5 be38 7883 b438 92c3 4ab9
00000250: e47e 48ba 2ff9 1fba 87ff 0dba d78a 01ba
00000260: 7107 6238 53b6 cc39 f286 de38 e292 8939
00000270: 339e a03a c6c1 e13a 42b6 913a 3e6e 71b9
00000280: 8c0a 11ba 9ce1 dc38 d444 84b6 ff2a 8eb9
00000290: b105 12b9 8295 da37 d609 3339 790e 3339
000002a0: 730e 3339 9b9e 3239 dcde 3139 5003 3339
000002b0: 285e 3e39 8ffc a838 69d4 5e38 6911 f0b7
000002c0: 45d2 a8b9 28ef 6ab8 4b81 9739 3029 843a
000002d0: fa32 9d3a af95 cab8 3dd2 22ba 02cf 9738
000002e0: efcf 7e3a 1418 033b dcae 053b 07d1 6e3a
000002f0: 1264 e4b9 b85d 93b9 88b1 2fb9 beda 5cb9
00000300: a35d 46b9 de25 10b9 03f2 3239 730e 3339
00000310: 730e 3339 cd10 2a39 dcde 3139 359b 3239
00000320: 3909 2a39 e772 8c38 56bf e037 4c31 0738
00000330: 2ec7 5d39 35c8 6e3a e0c8 8a3a 857f e43a
00000340: 06af 533a 8137 f9b9 72ac 58b9 5c27 b7b9
00000350: e65f c6b9 f94e 383a 4703 4839 076d a439
00000360: d67e 9dba d2fd d3ba ffec 77ba 535c 04ba
00000370: df14 92b8 7143 d238 5a2a 2c39 730e 3339
00000380: 730e 3339 843d 3239 b30f 3339 25de 3239
00000390: 4744 2839 955e b738 4edd 3436 08b3 ab39
000003a0: 2d3b 923a 5d9b 6f3a aab4 ac3a ee56 b63a
000003b0: f1d7 d7b9 7dfc b7ba 758b 75ba 84a1 31ba
000003c0: ae45 1bbb a8b7 97b9 aec0 e239 ea91 0d38
000003d0: e036 8fba 6bd9 f4ba e34d c3ba e85c 9dba
000003e0: 17e3 3dba 3b91 0e39 2b5f 2639 730e 3339
000003f0: 730e 3339 0a0d 3339 8fd4 3339 b0bd 3539

exp_avg_sq f4 [32, 784]
2.527482e-06 2.527482e-06 2.527482e-06 2.527482e-06 2.527482e-06 2.527482e-06 2.527482e-06 2.527482e-06
2.527482e-06 2.527482e-06 2.527482e-06 2.527482e-06 2.5273778e-06 2.5273064e-06 2.527526e-06 2.5274844e-06
2.527482e-06 2.527482e-06 2.527482e-06 2.527482e-06 2.527482e-06 2.527482e-06 2.527482e-06 2.527482e-06
2.527482e-06 2.527482e-06 2.527482e-06 2.527482e-06 2.527482e-06 2.527482e-06 2.527482e-06 2.527482e-06
2.527482e-06 2.5274758e-06 2.522434e-06 2.5200052e-06 2.5316358e-06 2.5299482e-06 2.5298145e-06 2.5291818e-06
2.5288218e-06 2.527355e-06 2.5730012e-06 2.5537977e-06 2.5331126e-06 2.5288307e-06 2.5326676e-06 2.5347063e-06
2.5304475e-06 2.5273785e-06 2.5270624e-06 2.5274803e-06 2.527482e-06 2.527482e-06 2.527482e-06 2.527482e-06
2.527482e-06 2.527482e-06 2.5274817e-06 2.5277134e-06 2.527607e-06 2.5275258e-06 2.5187044e-06 2.5268205e-06
2.530055e-06 2.5659344e-06 2.548131e-06 2.551691e-06 2.6006342e-06 2.832109e-06 2.7373492e-06 2.7675273e-06
2.6363462e-06 3.0097897e-06 2.6446123e-06 2.7107983e-06 2.5660206e-06 2.5447976e-06 2.5295828e-06 2.529443e-06
2.5281968e-06 2.5272432e-06 2.527482e-06 2.527482e-06 2.527482e-06 2.527482e-06 2.53011e-06 2.5287923e-06
2.525668e-06 2.5195293e-06 2.5318184e-06 2.533781e-06 2.4852902e-06 2.6786386e-06 2.5973368e-06 2.7909502e-06
2.992472e-06 3.4450682e-06 4.113175e-06 4.672589e-06 5.4579655e-06 5.557909e-06 4.379589e-06 3.6633749e-06
2.8943164e-06 3.0733524e-06 2.7948613e-06 2.5652093e-06 2.538309e-06 2.5313584e-06 2.5281518e-06 2.527482e-06
2.527482e-06 2.527482e-06 2.5382728e-06 2.529706e-06 2.5241816e-06 2.7157814e-06 2.7042634e-06 2.7067706e-06
2.737255e-06 3.1584461e-06 3.0848216e-06 3.3374545e-06 4.1880317e-06 8.5661595e-06 1.2091997e-05 1.5019862e-05
1.5606101e-05 1.2541336e-05 8.610284e-06 6.677743e-06 4.8411957e-06 4.1012754e-06 3.331438e-06 2.6206092e-06
2.7420213e-06 2.5526547e-06 2.531946e-06 2.5312277e-06 2.527482e-06 2.527482e-06 2.5290462e-06 2.5322495e-06
2.521016e-06 3.180425e-06 3.1936963e-06 3.1242455e-06 3.7020866e-06 4.5775378e-06 6.3519506e-06 8.959843e-06
1.2128908e-05 1.9360414e-05 2.5012754e-05 2.7608814e-05 3.0973235e-05 2.771097e-05 1.9763176e-05 1.2925155e-05
8.617858e-06 6.4534834e-06 4.94949e-06 3.879061e-06 2.9772943e-06 2.6938671e-06 2.5731945e-06 2.5359216e-06
2.527482e-06 2.527498e-06 2.530023e-06 2.5583488e-06 2.546054e-06 2.8977036e-06 3.4259926e-06 4.316461e-06
4.769199e-06 5.7363623e-06 1.0775496e-05 1.5066018e-05 1.9654117e-05 3.0464053e-05 4.0531224e-05 4.456656e-05
4.514901e-05 3.8235652e-05 2.5490763e-05 1.7634096e-05 1.27642525e-05 9.217678e-06 5.824106e-06 4.457593e-06
3.4442062e-06 2.649146e-06 2.5245806e-06 2.528607e-06 2.527482e-06 2.528117e-06 2.5475147e-06 2.55237e-06
3.1517452e-06 3.3917288e-06 3.788328e-06 4.9994865e-06 6.3192224e-06 8.927105e-06 1.3355072e-05 1.9236591e-05
2.8633878e-05 4.029047e-05 5.140093e-05 5.41862e-05 5.6942976e-05 4.5448403e-05 3.098777e-05 2.0746746e-05
1.5015351e-05 1.0062495e-05 6.1659093e-06 4.836054e-06 3.3421757e-06 2.5847996e-06 2.539837e-06 2.528292e-06
2.5274821e-06 2.5276042e-06 2.5353224e-06 2.5535664e-06 3.131566e-06 4.145909e-06 4.1689955e-06 5.467535e-06
8.16273e-06 1.1563976e-05 1.5384112e-05 2.4719033e-05 3.6160964e-05 4.8300724e-05 5.355446e-05 5.3668813e-05
5.9132068e-05 4.826778e-05 3.012003e-05 2.1328822e-05 1.5538593e-05 1.09417015e-05 6.824599e-06 4.8274187e-06
3.495824e-06 2.5616916e-06 2.5399163e-06 2.527187e-06 2.5276404e-06 2.5297793e-06 2.5177678e-06 2.54923e-06
00000000: cf9d 2936 cf9d 2936 cf9d 2936 cf9d 2936
00000010: cf9d 2936 cf9d 2936 cf9d 2936 cf9d 2936
00000020: cf9d 2936 cf9d 2936 cf9d 2936 cf9d 2936
00000030: 059c 2936 cb9a 2936 919e 2936 da9d 2936
00000040: cf9d 2936 cf9d 2936 cf9d 2936 cf9d 2936
00000050: cf9d 2936 cf9d 2936 cf9d 2936 cf9d 2936
00000060: cf9d 2936 cf9d 2936 cf9d 2936 cf9d 2936
00000070: cf9d 2936 cf9d 2936 cf9d 2936 cf9d 2936
00000080: cf9d 2936 b49d 2936 1647 2936 5c1d 2936
00000090: 2ce5 2936 2ec8 2936 e2c5 2936 03bb 2936
000000a0: d4b4 2936 a19b 2936 d3ab 2c36 e961 2b36
000000b0: 8bfe 2936 fbb4 2936 e6f6 2936 ec19 2a36
000000c0: c2d0 2936 089c 2936 9a96 2936 c89d 2936
000000d0: cf9d 2936 cf9d 2936 cf9d 2936 cf9d 2936
000000e0: cf9d 2936 cf9d 2936 ce9d 2936 c9a1 2936
000000f0: f59f 2936 909e 2936 0307 2936 7292 2936
00000100: 04ca 2936 6b32 2c36 8f00 2b36 b83d 2b36
00000110: 8e86 2e36 430f 3e36 4db3 3736 c2b9 3936
00000120: 15ec 3036 cbfb 4936 187a 3136 29eb 3536
00000130: e633 2c36 4ac7 2a36 e7c1 2936 80bf 2936
00000140: 17aa 2936 b599 2936 cf9d 2936 cf9d 2936
00000150: cf9d 2936 cf9d 2936 f5ca 2936 52b4 2936
00000160: a57e 2936 2f15 2936 4fe8 2936 070a 2a36
00000170: f6c8 2636 a9c2 3336 e84d 2e36 294c 3b36
00000180: 47d2 4836 d231 6736 e703 8a36 3cc9 9c36
00000190: 9123 b736 137e ba36 62f4 9236 4dd8 7536
000001a0: fa3b 4236 cb3f 4e36 5a8f 3b36 f625 2c36
000001b0: d157 2a36 68e0 2936 51a9 2936 cf9d 2936
000001c0: cf9d 2936 cf9d 2936 3257 2a36 05c4 2936
000001d0: 1c65 2936 c540 3636 e47a 3536 f7a5 3536
000001e0: afb1 3736 b1f5 5336 d504 4f36 08f9 5f36
000001f0: eb86 8c36 60b7 0f37 bbde 4a37 d1fd 7b37
00000200: d9e9 8237 a168 5237 e374 1037 6011 e036
00000210: 8e71 a236 b09d 8936 ab91 5f36 b9dd 2f36
00000220: 9103 3836 464e 2b36 80ea 2936 29de 2936
00000230: cf9d 2936 cf9d 2936 afb8 2936 b7ef 2936
00000240: ba2e 2936 496f 5536 4953 5636 21aa 5136
00000250: 5d71 7836 c098 9936 d722 d536 3c52 1637
00000260: 437d 4b37 2c68 a237 7bd2 d137 7a99 e737
00000270: 42e9 0138 db74 e837 19c9 a537 1ed9 5837
00000280: 6b95 1037 008b d836 cc13 a636 e128 8236
00000290: 87cd 4736 49c8 3436 25af 2c36 cd2e 2a36
000002a0: cf9d 2936 169e 2936 77c9 2936 19b0 2b36
000002b0: e0dc 2a36 2b76 4236 1bea 6536 1ed6 9036
000002c0: 1c07 a036 fa7a c036 67c8 3437 0ec4 7c37
000002d0: e5de a437 0e8d ff37 1200 2a38 fbec 3a38
000002e0: 615e 3d38 385f 2038 ffd4 d537 efec 9337
000002f0: 0c26 5637 a0a5 1a37 b16c c336 6f92 9536
00000300: 0323 6736 fbc7 3136 f76b 2936 23b1 2936
00000310: cf9d 2936 b8a8 2936 f8f5 2a36 6249 2b36
00000320: 9282 5336 759d 6336 fb3a 7e36 43c1 a736
00000330: b509 d436 a0c5 1537 990f 6037 445e a137
00000340: c932 f037 90fd 2838 5497 5738 fd45 6338
00000350: 0ed6 6e38 da9f 3e38 ddf8 0138 4c09 ae37
00000360: 71ea 7b37 16d2 2837 c2e4 ce36 6345 a236
00000370: 244a 6036 8576 2d36 1172 2a36 baab 2936
00000380: d09d 2936 e99f 2936 8224 2a36 f05d 2b36
00000390: e527 5236 161d 8b36 66e3 8b36 c575 b736
000003a0: a9f2 0837 e602 4237 210d 8137 b85b cf37
000003b0: 8aab 1738 8296 4a38 aa9f 6038 731a 6138
000003c0: 9304 7838 2273 4a38 46aa fc37 4ceb b237
000003d0: e058 8237 4092 3737 dcfe e436 36fb a136
000003e0: cd99 6a36 87e9 2b36 6e73 2a36 be98 2936
000003f0: 88a0 2936 47c5 2936 ecf6 2836 7013 2b36

exp_avg f4 [32]
-0.00040253744 -0.00015967597 0.00018719985 -0.000110981186 -0.0015174182 -0.00033996694 0.00070702494 0.000107504704
0.0022256137 0.0009441619 -0.0017600497 -0.00053434074 0.0005642774 0.00071122876 7.6055105e-05 -0.0006197068
0.0003032536 0.0002492673 -0.00054422754 0.00041804762 -0.00013817045 -0.00015030833 0.00081081974 0.001267468
0.0010689307 0.001740007 0.0009691885 -0.00022523661 0.0013464371 0.0010531021 0.0013699707 -0.00078552007
00000000: a90b d3b9 b16e 27b9 144b 4439 92be e8b8
00000010: 1be4 c6ba 973d b2b9 a457 393a 2674 e138
00000020: 9adb 113b a281 773a 78b1 e6ba 0013 0cba
00000030: 04ec 133a c171 3a3a c67f 9f38 d273 22ba
00000040: 02fe 9e39 17b0 8239 7eaa 0eba 672d db39
00000050: d9e1 10b9 169c 1db9 318d 543a 2b21 a63a
00000060: 5d1b 8c3a f210 e43a 2411 7e3a 7e2d 6cb9
00000070: ef7a b03a 3e08 8a3a 9790 b33a 5ceb 4dba

exp_avg_sq f4 [32]
1.4044916e-05 9.01929e-06 1.2512018e-05 1.5710973e-05 2.9713332e-05 1.9401428e-05 1.3333401e-05 1.177249e-05
2.2276785e-05 1.51391e-05 1.9999274e-05 1.5301552e-05 1.7877695e-05 1.7129978e-05 1.6039514e-05 1.4487229e-05
1.7548147e-05 1.838371e-05 1.3939998e-05 1.9239693e-05 1.4645934e-05 1.7090862e-05 2.4717636e-05 1.9481931e-05
1.8299352e-05 1.8725976e-05 2.5882742e-05 2.4406349e-05 1.9564748e-05 1.3116692e-05 1.0283504e-05 2.7654009e-05
00000000: 74a2 6b37 8e51 1737 b5ea 5137 0fcb 8337
00000010: e540 f937 40c0 a237 85b2 5f37 7682 4537
00000020: 08df ba37 f0fd 7d37 1dc4 a737 d55b 8037
00000030: 0ff8 9537 59b2 8f37 988c 8637 2d0e 7337
00000040: 5c34 9337 b736 9a37 d6df 6937 ed64 a137
00000050: cfb7 7537 595e 8f37 b858 cf37 216d a337
00000060: 8f81 9937 ba15 9d37 c41e d937 3cbc cc37
00000070: fa1e a437 c30f 5c37 5087 2c37 88fa e737

exp_avg f4 [10, 32]
-0.0053768745 0.0017866322 -0.0023536414 0.0009826458 -0.0010743669 -0.0035130621 -0.0026028287 -0.0036723649
0.00044805132 -0.0014234453 -0.002391179 0.0006681428 -0.0009664552 -0.0002477248 -0.00011354315 0.0011977339
-0.0016738148 -0.0030294496 -0.0031653196 -0.0038762325 0.0018557434 0.00022051991 0.0006689028 0.0014331718
0.0024562893 -8.200476e-05 -0.0016979323 0.00026099515 -0.001569252 0.0022857757 0.0013196708 0.00059220695
0.004842147 -0.00041948244 0.0031024432 0.00041734052 8.833036e-06 -0.0048623076 0.008454289 0.0055656713
0.0046895444 0.0033577324 -0.002575274 0.001971547 0.0017185988 0.0032809547 0.0029925343 0.00085358566
-0.0022392836 0.0055533764 0.0016647162 0.0015046875 0.0097252475 -0.0014458008 0.0011991797 -2.7934579e-05
0.00311872 0.011321432 -0.0031609857 0.004997902 -0.0034011584 0.0074444506 0.0021456857 0.00030465133
-0.008509633 0.0024877475 -0.004642666 0.002180504 0.004682522 0.008677846 -0.0047575813 -0.0008044994
0.009732815 -0.0021022193 0.0034976904 0.0047371383 0.0020962798 0.0018945158 0.004739492 -0.0013701699
0.005018671 0.010124786 -0.0009124712 -0.00059922563 -0.005908098 0.0014623363 0.0019409944 0.00082196214
-0.0036443665 -0.010657025 0.007287133 0.0022116317 0.007330128 0.0065454696 -0.0014314122 -0.0050955247
0.009103062 -0.0002821115 0.0038444388 0.0038774759 -0.0059019635 0.0047514103 0.0029374843 0.0004379062
-0.011927917 -0.002093952 -9.90977e-06 -0.0030966538 0.0020665291 -0.0035887104 -0.001982606 0.0070975185
0.0038471962 -0.007831232 0.00024726827 0.0027785157 -0.0020816114 0.016851623 -0.0044936705 -0.00023165788
0.0025977998 0.00571109 -0.0012675449 -0.00026961658 0.0024478352 -0.001947897 -0.00024708442 -0.0015192337
-0.0009459482 0.0036709004 -0.005283263 -0.0024225912 0.0023865246 0.000115000796 -0.0016957542 -0.00568913
0.0019264552 -0.004290477 -0.0016856623 -0.002891726 -0.0048792777 -0.00025254962 0.0029098126 0.0045269695
0.00040923874 -0.0010048521 -0.0018816314 -0.0033512663 0.00046721305 0.0021116796 0.00044482463 -9.7619646e-05
-0.003094463 0.0034594678 0.002533379 0.00693044 0.00047943377 0.0083468305 -0.000488774 0.0008697085
0.0019936636 0.0068693347 -0.003346955 0.0015468572 0.004290044 -0.004337645 -0.0073031676 -0.010563961
-0.0077036987 -0.00022693584 -0.0044781826 -0.0033610477 -0.0037004163 -0.005441698 -0.0019159635 0.00015905732
-0.0011183667 -0.006873744 0.00069140404 -0.0014872422 -0.0034260948 -0.014364957 -0.0040589604 -0.0049091144
-0.001180454 -0.013941258 -0.0050975694 -0.004124181 -0.004442451 -0.013030794 0.0043831915 0.0019801387
0.0029903369 -0.0057078535 -0.001794403 0.00044238177 -0.011162479 0.005122627 0.0022664866 -0.001441092
0.0007530504 -0.0042024963 -0.009438608 -0.007186713 -0.0039706477 -0.0041587744 -0.0001942369 -0.0040069884
-0.007588012 -0.0055849534 0.010227965 0.00572697 -0.00373695 0.00058967137 -0.003193529 0.00015191884
0.0006146202 -0.0074082925 8.229044e-05 -0.001779722 -0.004501434 -0.008299508 -0.00475703 -0.012621517
-0.005157898 -0.0033573282 0.0015392487 -0.0046089357 -0.0021574618 -0.002618041 4.5487363e-05 0.0025119798
-0.0010101686 0.0018339859 -0.0057942397 -0.0032266397 -0.002451248 -0.00010522189 -0.008004829 -0.0059646163
-0.005172248 0.0019286099 5.5614415e-05 -0.0019407064 -0.00028990058 -3.4545235e-05 -0.0024783593 0.000448945
-0.0007432701 0.00058349245 -0.0030421112 -0.0012317523 -0.0023543045 -0.0056927116 -0.0042737382 0.0010998287
00000000: 7e30 b0bb 6e2d ea3a 8d3f 1abb 1fcc 803a
00000010: c5d1 8cba 673b 66bb 3894 2abb 0fac 70bb
00000020: 6ee8 ea39 e692 baba 54b5 1cbb 4e26 2f3a
00000030: b659 7dba 0fe1 81b9 041e eeb8 48fd 9c3a
00000040: e863 dbba bb89 46bb 4071 4fbb 6408 7ebb
00000050: 6a3c f33a 5d3b 6739 4f59 2f3a 44d9 bb3a
00000060: b2f9 203b f8f9 abb8 278d deba 2dd6 8839
00000070: 5caf cdba f4cc 153b cef8 ac3a 563e 1b3a
00000080: e0aa 9e3b fbed dbb9 5c52 4b3b 7fce da39
00000090: 9a31 1437 fe53 9fbb dc83 0a3c 3c60 b63b
000000a0: c0aa 993b 670d 5c3b eec5 28bb 1235 013b
000000b0: 9b42 e13a 4905 573b 651e 443b 2ac3 5f3a
000000c0: f2c0 12bb 19f9 b53b 9b32 da3a ef38 c53a
000000d0: a556 1f3c 0681 bdba cb2d 9d3a 0d55 eab7
000000e0: 7063 4c3b 877d 393c 8a28 4fbb 71c5 a33b
000000f0: f8e5 5ebb 94f0 f33b a29e 0c3b 9cb9 9f39
00000100: fd6b 0bbc 7a09 233b 8121 98bb c9e6 0e3b
00000110: d76f 993b 862d 0e3c 7ce5 9bbb 0ae5 52ba
00000120: 6376 1f3c 63c5 09bb 8239 653b ff39 9b3b
00000130: bd61 093b 6751 f83a be4d 9b3b 4697 b3ba
00000140: aa73 a43b 6ee2 253c e832 6fba 5a15 1dba
00000150: b898 c1bb ddab bf3a f768 fe3a f278 573a
00000160: 53d6 6ebb cd9a 2ebc e7c8 ee3b 06f1 103b
00000170: 9231 f03b 617b d63b 399e bbba 5cf8 a6bb
00000180: 0225 153c 5de8 93b9 fbf2 7b3b 401d 7e3b
00000190: 4265 c1bb b8b1 9b3b cf82 403b c696 e539
000001a0: 4f6d 43bc af3a 09bb 2342 26b7 3bf1 4abb
000001b0: 9b6e 073b 9230 6bbb 9cee 01bb 4d92 e83b
000001c0: 3e21 7c3b 914e 00bc c9a3 8139 c217 363b
000001d0: a56b 08bb 6a0c 8a3c a43f 93bb 30e9 72b9
000001e0: d93f 2a3b 1824 bb3b c023 a6ba 535b 8db9
000001f0: dc6b 203b 9450 ffba 1c8b 81b9 0621 c7ba
00000200: 82f9 77ba 7d93 703b 391f adbb 56c4 1ebb
00000210: 3d67 1c3b 952c f138 1244 deba e26b babb
00000220: 1c81 fc3a 2197 8cbb 71f1 dcba 1d83 3dbb
00000230: 59e2 9fbb a368 84b9 8eb2 3e3b f956 943b
00000240: 188f d639 3eb5 83ba 13a1 f6ba eba0 5bbb
00000250: 46f4 f439 1b64 0a3b 5a37 e939 26b9 ccb8
00000260: 79cc 4abb 3db8 623b 0c07 263b bf18 e33b
00000270: 835c fb39 25c1 083c 1121 00ba 26fd 633a
00000280: 20a8 023b 2818 e13b 9658 5bbb eabf ca3a
00000290: 7f93 8c3b ce22 8ebb 694f efbb 7714 2dbc
000002a0: 4f6f fcbb a0f5 6db9 b8bd 92bb 0645 5cbb
000002b0: af82 72bb 4550 b2bb 1121 fbba a0c8 2639
000002c0: 2996 92ba 253d e1bb 573f 353a 91ef c2ba
000002d0: 5588 60bb ff5a 6bbc 0701 85bb a3dc a0bb
000002e0: 77b9 9aba e069 64bc 8309 a7bb 2324 87bb
000002f0: fb91 91bb 1d7f 55bc e0a0 8f3b 37c5 013b
00000300: 87f9 433b f208 bbbb 2c32 ebba 7aef e739
00000310: d5e2 36bc b6db a73b 5689 143b 06e3 bcba
00000320: 5b68 453a 18b5 89bb 64a4 1abc 857e ebbb
00000330: 351c 82bb 5446 88bb 12ac 4bb9 0e4d 83bb
00000340: dca4 f8bb fc01 b7bb 3293 273c 4ea9 bb3b
00000350: 9ee7 74bb 2d94 1a3a 874a 51bb 674c 1f39
00000360: 771e 213a 43c1 f2bb 5893 ac38 9045 e9ba
00000370: c480 93bb a9fa 07bc dce0 9bbb 7bca 4ebc
00000380: 9603 a9bb 9f06 5cbb 9ec0 c93a 8e06 97bb
00000390: 3464 0dbb 7093 2bbb afc9 3e38 07a0 243b
000003a0: a267 84ba 5b62 f03a 9bdd bdbb 0876 53bb
000003b0: 1ea5 20bb 92aa dcb8 b026 03bc d472 c3bb
000003c0: f67b a9bb 69c9 fc3a 8643 6938 4d5f feba
000003d0: ccfd 97b9 aae4 10b8 f86b 22bb 6160 eb39
000003e0: 03d8 42ba 84f5 183a 285e 47bb c072 a1ba
000003f0: ad4a 1abb ed89 babb b70a 8cbb 2128 903a

exp_avg_sq f4 [10, 32]
0.0032954845 0.00025688673 0.0020963056 0.00065117085 0.00038797458 0.00046363333 0.0008712048 0.0014822839
0.00012912723 0.00031854454 0.00025704893 0.0013294808 0.0005281339 0.00018653233 0.00018531605 0.00033378362
0.00065405696 0.00089050556 0.002480821 0.00046019498 0.0002165068 6.41788e-05 0.00012530714 8.620249e-05
0.0005202237 0.00085308007 0.0002083813 0.00018215539 0.00026340885 0.0004504103 0.00028826622 0.00022368183
0.0010490898 0.0001258555 0.00072544545 7.9918034e-05 0.00036059288 0.00020983636 0.0012686884 0.0010794037
0.00072905316 0.0012261012 0.00025987258 7.5977536e-05 0.00046358068 0.0007139535 0.00030266002 9.095053e-05
0.00034392154 0.0006242434 3.25291e-05 0.00031314197 0.0015899416 0.0001653822 0.0015467333 0.00038693906
0.00012201926 0.0026192167 0.00012009541 0.001430764 0.0011888372 0.0015107582 0.0014007516 0.00041719447
0.0042787697 0.00076998415 0.0032071515 0.0005457922 0.00095430436 0.00064779987 0.0009013675 0.0019350759
0.0013992339 0.00045751221 0.0003064413 0.0012519151 0.00082898384 0.0011145556 0.0009972182 0.00083238824
0.0009489171 0.0010171371 0.001153241 0.00056675373 0.0005643566 0.0004317564 0.00071828766 0.0010085092
0.00022246508 0.0031630262 0.00070014794 0.00032543682 0.002355449 0.001594101 0.0008850423 0.0007582901
0.004950135 0.002078804 0.0034213003 0.00077901635 0.0011977787 0.0009356465 0.002537702 0.00210195
0.0013279943 0.00022822176 0.0011205131 0.003366787 0.0009369943 0.001508299 0.0013517501 0.0007616861
0.0013517803 0.0024955443 0.00083854754 0.0006350715 0.00063405413 0.0022242812 0.0014803412 0.00097126205
0.0003439481 0.0026331565 0.0012164393 0.0013423222 0.0027307398 0.0040831375 0.0022290156 0.00040008267
0.003954832 0.0026048021 0.001376024 0.0021492483 0.0005943736 7.5168673e-06 0.0004933201 0.00146584
0.00012639654 0.0007685663 0.0004918927 0.00093522103 0.0018304598 0.00053222117 0.0002203081 0.0014099581
0.0019240828 0.00010029702 0.00064896396 0.0002143982 0.00079215143 0.00014020213 0.00092443073 8.169562e-05
0.00028467647 0.0010937573 0.00022373692 0.0012252314 0.00020961891 0.0010050498 0.002907138 0.001331295
0.0032928854 0.0011301257 0.0016042894 0.0009717636 0.00020675495 0.0007116989 0.0021020893 0.0018562506
0.00022811448 0.000548883 0.0013780417 0.0017157489 0.0009498163 0.00028654095 0.0004386843 0.00024382473
0.000927547 0.0024774391 0.00075277395 0.00039343257 0.0007095682 0.001481344 0.0005087273 0.000155268
0.0008719066 0.0015637031 0.000548852 0.00066065864 0.0007206852 0.0023420977 0.0009952975 0.0003625556
0.0017984593 0.00019180405 0.0011507398 0.00045792587 0.00029451275 0.00017467629 0.0011152754 0.0020768447
0.00010426962 0.00054545753 0.0006278844 0.00050198607 0.0012252412 0.0002149227 6.278043e-05 0.00033456474
0.00091609196 0.0011180164 0.00091623614 0.00037996584 0.00037663983 3.437013e-05 0.00027982533 0.00011244171
0.00014037319 0.0018447577 0.00021689737 0.00025398398 0.0002549849 0.00050021376 0.00015984838 0.0006829642
0.0024319408 0.0017370266 0.00058881147 0.0013458234 0.00087704655 0.00025284395 0.0002823258 0.00047294018
0.000998618 0.00046388316 0.0004041134 0.0011694909 0.00063635653 0.0006154845 0.0010081775 0.0008718341
0.0009319311 0.0005002566 0.0003386176 0.00029836982 0.0009601714 5.7848953e-05 0.0005911356 0.00044529245
0.000850892 0.00068084046 0.00033969415 0.000977178 0.0006653881 0.0016625847 0.0023724907 0.00022196294
00000000: 0ef9 573b c1ae 8639 2c62 093b 56b3 2a3a
00000010: 1169 cb39 d013 f339 9061 643a 3249 c23a
00000020: 5466 0739 5302 a739 86c4 8639 f941 ae3a
00000030: 7772 0a3a e497 4339 6651 4239 aeff ae39
00000040: 0575 2b3a d170 693a 4595 223b 5346 f139
00000050: 1a06 6339 bb97 8638 e164 0339 9cc7 b438
00000060: 9f5f 083a 3ca1 5f3a ee80 5a39 f700 3f39
00000070: 231a 8a39 0c25 ec39 7022 9739 228c 6a39
00000080: 9d81 893a 14f8 0339 d22b 3e3a ab99 a738
00000090: f50d bd39 8507 5c39 1e4a a63a c77a 8d3a
000000a0: ee1d 3f3a 21b5 a03a 823f 8839 2156 9f38
000000b0: bf0c f339 9c28 3b3a 57ae 9e39 b2bc be38
000000c0: 5e50 b439 44a4 233a db6f 0838 342d a439
000000d0: 9665 d03a 726a 2d39 c2bb ca3a 15de ca39
000000e0: 97e4 ff38 2aa7 2b3b bbdb fb38 7988 bb3a
000000f0: c2d2 9b3a a204 c63a 6d99 b73a e5ba da39
00000100: ec34 8c3b c3d8 493a 132f 523b 7f13 0f3a
00000110: 482a 7a3a 1dd1 293a c049 6c3a 5fa2 fd3a
00000120: 8066 b73a 40de ef39 dba9 a039 4d17 a43a
00000130: 2a50 593a 4816 923a 17b5 823a a134 5a3a
00000140: c0c0 783a 7551 853a 5928 973a 3392 143a
00000150: 55f1 133a 5d5d e239 784b 3c3a f42f 843a
00000160: 8445 6939 c64a 4f3b 228a 373a 649f aa39
00000170: e05d 1a3b 27f1 d03a 2f02 683a fdc7 463a
00000180: be34 a23b 8b3c 083b e537 603b e736 4c3a
00000190: c9fe 9c3a 2c46 753a 934f 263b dfc0 093b
000001a0: 1810 ae3a d04e 6f39 2ede 923a 50a5 5c3b
000001b0: a0a0 753a 1eb2 c53a 352d b13a e4ab 473a
000001c0: 382e b13a 498c 233b f9d1 5b3a ed7a 263a
000001d0: a736 263a 3fc5 113b 0208 c23a 4b9c 7e3a
000001e0: ef53 b439 0991 2c3b ee70 9f3a dcf0 af3a
000001f0: 36f6 323b d7cb 853b ad14 123b 30c2 d139
00000200: 8997 813b 54b5 2a3b b45b b43a 67da 0c3b
00000210: bdcf 1b3a 6639 fc36 2752 013a 6e21 c03a
00000220: 5089 0439 9c79 493a 5cf2 003a 9f29 753a
00000230: 0aec ef3a c284 0b3a 8102 6739 58ce b83a
00000240: 8131 fc3a 8d56 d238 3c1f 2a3a 14d0 6039
00000250: 62a8 4f3a 3903 1339 7f55 723a 0154 ab38
00000260: a140 9539 685c 8f3a ec9a 6a39 f297 a03a
00000270: 26cd 5b39 e0bb 833a af85 3e3b d97e ae3a
00000280: 73cd 573b ba20 943a 0547 d23a f4bd 7e3a
00000290: 5ccc 5839 4e91 3a3a 35c3 093b 6f4d f33a
000002a0: 0432 6f39 eae2 0f3a 689f b43a fbe2 e03a
000002b0: 18fd 783a e03a 9639 36ff e539 34ab 7f39
000002c0: a026 733a 885c 223b ce55 453a a045 ce39
000002d0: 5102 3a3a a829 c23a 1c5c 053a 70cf 2239
000002e0: a990 643a 2bf5 cc3a d6e0 0f3a 0d30 2d3a
000002f0: 5dec 3c3a e17d 193b a474 823a 6415 be39
00000300: 48ba eb3a 021f 4939 6cd4 963a c515 f039
00000310: d568 9a39 4f29 3739 6f2e 923a ac1b 083b
00000320: 53ab da38 09fd 0e3a 9c98 243a b797 033a
00000330: 4698 a03a df5c 6139 fda8 8338 8568 af39
00000340: e425 703a 688a 923a 912f 703a 2736 c739
00000350: be77 c539 a528 1038 85b5 9239 afce eb38
00000360: 2431 1339 cccb f13a f26e 6339 2729 8539
00000370: 7eaf 8539 c720 033a f99c 2739 f408 333a
00000380: 3261 1f3b f1ac e33a 785a 1a3a 5766 b03a
00000390: 99e9 653a 2490 8439 2105 9439 f5f4 f739
000003a0: 0fe4 823a 5835 f339 2fdf d339 9a49 993a
000003b0: 2ad1 263a 7758 213a d324 843a cc8b 643a
000003c0: d64c 743a a723 033a 7c88 b139 856e 9c39
000003d0: 03b4 7b3a d7a2 7238 70f6 1a3a 2476 e939
000003e0: 650e 5f3a 6e7a 323a fa18 b239 a714 803a
000003f0: 716d 2e3a 16eb d93a ca7b 1b3b b9be 6839

exp_avg f4 [10]
-0.00021218383 0.00027251654 0.0003704596 0.0001577223 -0.00024763244 -0.00089351094 -0.0005133519 -0.00060118875
0.0026402003 -0.0009730889
00000000: aa7d 5eb9 8de0 8e39 3f3a c239 4262 2539
00000010: aad4 81b9 813a 6aba 7692 06ba 1899 1dba
00000020: 3607 2d3b e416 7fba

exp_avg_sq f4 [10]
1.797381e-05 2.6810849e-05 3.5586047e-05 5.414954e-05 3.7479684e-05 3.531567e-05 2.0320036e-05 3.0432047e-05
5.6024262e-05 5.9377642e-05
00000000: 77c6 9637 dce7 e037 3a42 1538 a01e 6338
00000010: 8133 1d38 e91f 1438 f274 aa37 5348 ff37
00000020: 98fb 6a38 420c 7938
